model/keypoint_classifier_new/keypoint_classifier.tflite (tflite, 6840 bytes, 6 tensors)

arith.constant f4 [10, 16]
00000000: cde5 b9be 0909 cabd 1014 91bd 4c69 473e
00000010: a9e3 b0be c9dc b2bd b147 823e 6581 abbc
00000020: 8dca b6bc e32b 47be 6dbb 443e e0e8 a1be
00000030: 5a3d b8be 3e9c ebbe 4cc8 de3d 1b9c 03bf
00000040: 1044 533e ba63 563e bd3c cbbd 7a2b a8be
00000050: 7659 c4be 8327 f9be 8e13 0bbf ddc4 ff3d
00000060: a98c 673e 72b2 073e e712 8a3d d58f 123d
00000070: b47c 3a3d 5494 03bf f0fb d0be aa36 0dbf
00000080: bb07 03be a9f4 a5be c98d 4a3c 99ff 8abe
00000090: 6835 00bf 15f5 78be d629 29bf 6057 99be
000000a0: 866d b73e 9979 fdbd 0d25 193d 0c5c d03d
000000b0: 0925 b4bd abd7 e8be 648f 163d 16c0 abbd
000000c0: 77e7 a33e d9c7 5d3e a2e4 c5be 6834 a4be
000000d0: a402 5fbe aaf6 033e 649a ebbe af0b 51be
000000e0: 921e 4b3e 9f59 723e e698 03bf 6b79 0ebf
000000f0: e800 043d 221b cd3e 9bc5 04be 1e9b 983e
00000100: 1e43 d2be fb6a b4be afed 30be 2f3b 963d
00000110: 65a4 f23e 49b9 a5be 60fa 2abf 9c5a 893e
00000120: 165e 92be 9987 ae3e 8488 babe 0c5d 5f3e
00000130: 1b3c d33e db86 f5bd f20c be3d 026d 403e
00000140: 7733 c3bd f008 e8be ef7f 35be 367b 613e
00000150: 866b c1bd 88e9 933e c6b5 4bbe b0a1 613e
00000160: 5056 f9bd fe9b 9ebe b8d0 e03d f899 f8be
00000170: b722 14bf fe1a 82be 0b16 b83e c46a 09bf
00000180: eb59 3abe c336 b83d 0466 b53e 3f22 cbbe
00000190: b860 28bc a5a4 683e 2b12 fbbe 9742 74bd
000001a0: 2df3 d73e 36f7 bfbe d438 d7bd 9718 3c3e
000001b0: 3f4d f5be 4b73 db3e de12 aabe cd46 363e
000001c0: 57a4 adbe de79 bfbe 7ed3 7abe 7369 96be
000001d0: c55f 833e 2c83 843e ca07 7bbe 9543 303d
000001e0: d150 413e dbcc 713e 12ab 59be 7798 0ebf
000001f0: ee5b 49be 0aae f8bd d3f7 903d 49a1 0fbf
00000200: 3d20 1e3f f284 97be b549 79bd e427 153f
00000210: e9b8 a9be 7a4e b93d 6d51 043f 727c f43c
00000220: b08d 58be e5e9 2d3e b4db 9bbd 3d03 183f
00000230: 9449 72be b68b 61bc 14dd 143f 1be7 8fbd
00000240: ccb6 41be 7f00 5ebe 63f2 85be 2044 8f3e
00000250: e264 19bf fb42 293e 2a4c f0bd 7b49 11bf
00000260: df69 433a dabe acbe 4ac2 ffbe 1e14 d33c
00000270: 0b51 a73e af14 9f3e b7af b2bd c06b 933e
-0.36308137 -0.098650046 -0.07083905 0.19473761 -0.3454869 -0.08733518 0.2544532 -0.020935724
-0.02231338 -0.19450335 0.19212122 -0.31622982 -0.35984308 -0.4601764 0.10878047 -0.51410073
0.20631433 0.2093648 -0.09923694 -0.3284567 -0.38349503 -0.48662958 -0.54326713 0.124887206
0.22612251 0.13251665 0.067418866 0.0357817 0.045529082 -0.51398206 -0.40817213 -0.55161536
-0.12795918 -0.32413223 0.012362906 -0.2714813 -0.5008149 -0.24312241 -0.6607946 -0.29949474
0.35825747 -0.123767085 0.03738885 0.101738065 -0.087961264 -0.45477042 0.03675784 -0.08386247
0.3201253 0.21658267 -0.38650995 -0.32071233 -0.21778351 0.12887064 -0.46016228 -0.20414613
0.1983588 0.23667 -0.5140518 -0.5565402 0.032227427 0.40059763 -0.12966006 0.29805845
-0.4106683 -0.3523787 -0.17278169 0.07335507 0.47391048 -0.32367924 -0.6678829 0.26826942
-0.28587407 0.34087828 -0.36432278 0.21812838 0.41256794 -0.11988612 0.09279813 0.18791583
-0.095313005 -0.4531932 -0.17724584 0.22019657 -0.094443366 0.28889108 -0.1989356 0.22034335
-0.12174666 -0.30978388 0.1097731 -0.4855497 -0.5786547 -0.25411218 0.35954317 -0.53678536
-0.18198363 0.0899482 0.35429394 -0.39674565 -0.010276966 0.22719057 -0.490373 -0.059633818
0.42177716 -0.37493294 -0.10508886 0.18368755 -0.47910497 0.428614 -0.3321752 0.17800446
-0.33914444 -0.37397665 -0.2449474 -0.29377326 0.25659004 0.25881326 -0.2451469 0.0430332
0.18878485 0.23613302 -0.21256664 -0.5570139 -0.19663975 -0.1214257 0.07078519 -0.56105477
0.6176794 -0.29593617 -0.060861308 0.58263993 -0.33148888 0.09048171 0.51686746 0.029844496
-0.211478 0.16983755 -0.076102644 0.5937994 -0.2366088 -0.01376622 0.5814984 -0.07026502
-0.18917388 -0.21679877 -0.2616149 0.27981663 -0.5991956 0.16529457 -0.11733277 -0.5675275
0.00074544357 -0.33739358 -0.49952918 0.025766429 0.32679018 0.31070468 -0.08724921 0.28793144

arith.constant1 f4 [16, 32]
00000000: 1d2c b6be 4926 8ebe 9425 d93e fb9c 80be
00000010: e19f 963d f459 7c3e 4660 8b3e fe8c cbbd
00000020: d5f1 3c3e 13b0 3dbb c9d6 89be c43a 653d
00000030: d724 05be 24a1 e5be 7b35 6fbe 1427 39be
00000040: aaa8 723e eac5 52be 9035 053f a4c1 7fbe
00000050: ea9a bd3d 659d 5e3e d633 bdbe 09d0 ff3d
00000060: a38c 043f f430 023d ec5f 80be b1bc 6b3e
00000070: 10f1 0f3e 4166 b1bc cb00 c5be 0057 bc3b
00000080: bfa3 4abe 5c5c 29bd 1eb4 17be 87f2 843e
00000090: 1528 0fbd 0083 27be 713f aabe 1942 5ebd
000000a0: 1ca1 b5be a877 f43d f52e 33be 5571 773e
000000b0: f013 1f3d 1ec0 7bbd b6ba 75be 2bf2 94be
000000c0: 5e3c a7be 4484 48be 337c 0abe bad9 273c
000000d0: 1d4c a5be 408a c23d 02d5 af3c e3e2 a13d
000000e0: 132e 7ebd 53a9 733e 095c cfbd e8ed 8ebc
000000f0: f225 92bd 6a78 9f3d 1d55 343e 6136 a1be
00000100: 9a5e 36be fe08 6ebe 6bb0 113d 95af 733e
00000110: bb48 5bbe f380 54be d1b6 a73e 241c b9be
00000120: 1aa9 98be d036 143c 781b 973e 3794 373e
00000130: d735 333e 949f 16bd e84c b1be 0b6c 30bb
00000140: 7d3f 96be 9b68 15be 7fc0 8e3e 0399 783e
00000150: f1e1 203e 5f6b e5bc 9ca9 49be 2066 5dbd
00000160: a261 f83c ba91 0f3e 0fc6 05be ca30 b3be
00000170: 5eef c4be 00c5 11be 0d39 e03c 9abb 39be
00000180: 83bf 083e a0d9 30be 89fb 853e c619 50be
00000190: 6852 7e3e 2fef 3d3e b175 a53e 2fd6 53bc
000001a0: 7be2 b63e cbab 01bf debc 94be 6de4 b13e
000001b0: a721 ea3e 04f9 ffbe 233f 6bbe 38db 97be
000001c0: faac 363e 7110 c43d a872 cd3d 782f 0ebe
000001d0: 1454 c2be daf3 d23e d316 c9be 1072 9f3e
000001e0: cc0a f93e d099 d2be aa6e 9fbe 8a3a c53e
000001f0: 8038 ba3c 1454 1fbd 6fbd 68be 5478 4bbe
00000200: 4163 d63d 9e76 a53e 4b59 1fbf 6ec6 963e
00000210: e21d 153e c078 133e e4c5 86bc 825a 85bd
00000220: 6297 fa3b b76e 393e 2361 ab3e 7a93 b63e
00000230: 2b89 463e 2e51 813e ba98 10bf 7d25 233e
00000240: 3975 c3bd 6907 81bd f1ad 50be dbb1 c0be
00000250: a9b5 7b3e 6e55 dc3b 9ffc dd3e 25ab 88bd
00000260: fe47 9ebe b671 a83e 1922 d73e d4a4 d5bd
00000270: 5e8c 6b3e f476 093e 85de 0d3f d136 6e3e
00000280: 3267 5c3d 97da c7be f85f 93be 5d24 843b
00000290: 8ba9 d6bd ee82 8a3e 6ffd 5f3e e559 52bd
000002a0: 5089 bfbe b131 c7be 299a f13d 832f d0bc
000002b0: a96d ed3b 8c29 9e3d 13a4 923e 3f96 46be
000002c0: 55c5 b1be f884 93bd 5c32 e53d 8fca ecbc
000002d0: 3e54 ec3c 71a4 0b3e c0cd b23d e135 81be
000002e0: 22e6 acbd 1e87 c8be 555d eb3d dc18 703e
000002f0: fc3f 26be 7c15 bd3d cb17 babe 2ef7 51be
00000300: e022 a3be 7fef ce3d ddcc 563e b1da 913d
00000310: b226 e2bd 03c0 02be 9ca1 a3be 5a15 20be
00000320: 3c3a 5fbe 6146 b13e cc44 d93e 9975 28be
00000330: 8c9c bd3c 1048 7a3e f032 0b3f b251 1dbe
00000340: e450 f7be 986b 983d 36c8 6dbe 1785 593e
00000350: 932b 2e3e 44ed 17be bb30 febd 43b8 b0be
00000360: c427 3abe a809 533d c818 3a3e a917 ecbe
00000370: 901d 4a3e ec96 3abe af24 09be 3920 8fbd
00000380: 151a ebbd dfba ed3d 399e dbbe de23 9f3e
00000390: 1ca9 5fbe 8a29 8cbe a8e6 ca3e f5a0 ab3c
000003a0: 7527 2bba 2d56 043f a993 83bc b70b 853e
000003b0: 1937 423e 19df c23e e910 cabe cf23 52be
000003c0: 0d10 313e 91b2 4a3e b144 d9be 13c8 25be
000003d0: 7e96 613e 0bb2 bb3e 9888 803e f3be 693e
000003e0: 2e5d f63d 9454 7a3e 6a54 ef3e 241a d43e
000003f0: 9770 803e 3994 ef3e 168c cf3e 7882 8d3d
-0.3558053 -0.27763584 0.42411482 -0.25119767 0.07354713 0.2464369 0.27221888 -0.099390015
0.18451627 -0.002894406 -0.2692168 0.055964246 -0.13002335 -0.44849503 -0.23360245 -0.18081313
0.23697153 -0.2058331 0.52034855 -0.24976212 0.09258063 0.21739729 -0.3695361 0.124908514
0.51777095 0.031784967 -0.25073183 0.23021199 0.14056802 -0.021655204 -0.38477167 0.005747676
-0.19789027 -0.041347846 -0.14814803 0.25966284 -0.034950335 -0.16358566 -0.33251527 -0.054262254
-0.3547448 0.11936885 -0.17498381 0.24164326 0.038837373 -0.061462514 -0.23997006 -0.2909101
-0.32663244 -0.19581705 -0.1352394 0.010244781 -0.32284632 0.09499025 0.021463875 0.07904603
-0.06205566 0.23795061 -0.10124976 -0.017447427 -0.07136144 0.07786639 0.17610593 -0.314868
-0.17809525 -0.23245618 0.035568636 0.23797448 -0.21414463 -0.20752315 0.32756665 -0.36154282
-0.29816514 0.009046271 0.29513144 0.17927633 0.17501007 -0.03677328 -0.34628987 -0.0026919867
-0.29345313 -0.14590685 0.27881238 0.2427712 0.1571119 -0.0280053 -0.19693607 -0.054052472
0.030319992 0.14020434 -0.13063835 -0.3499816 -0.38463873 -0.14235306 0.027370954 -0.1813797
0.13354306 -0.17270517 0.2616847 -0.20322332 0.24836123 0.18548273 0.32316354 -0.012929483
0.35719666 -0.5065276 -0.29050344 0.34744588 0.457288 -0.4999467 -0.22973303 -0.29659438
0.17839423 0.095734484 0.100316346 -0.13885295 -0.37954772 0.4120167 -0.39275226 0.3114171
0.4864105 -0.41132975 -0.31139117 0.38521224 0.02273202 -0.038898543 -0.22728513 -0.1987012
0.1046815 0.3231706 -0.62245625 0.29448265 0.1456218 0.14401531 -0.016451783 -0.065114036
0.007647441 0.1810864 0.33472547 0.3565939 0.19388263 0.25257248 -0.5648304 0.1593227
-0.09543843 -0.063002415 -0.20378853 -0.37635693 0.24581017 0.006724051 0.43356797 -0.06673268
-0.309143 0.32899255 0.42018202 -0.10431829 0.23002765 0.13424283 0.5541766 0.23263098
0.053809352 -0.39033958 -0.28784156 0.004032655 -0.104815565 0.27053016 0.21874021 -0.05135526
-0.3740945 -0.389051 0.11796982 -0.02541328 0.0072457385 0.07722768 0.28640804 -0.19393252
-0.34720865 -0.07203096 0.11191246 -0.028905181 0.028848764 0.13636948 0.0873065 -0.2523642
-0.08442332 -0.39165586 0.11492411 0.23446983 -0.16235346 0.092326134 -0.36346278 -0.20504448
-0.31862545 0.10104274 0.20976587 0.0712179 -0.11042537 -0.12768559 -0.31959236 -0.15633145
-0.21799558 0.34624007 0.424353 -0.1645111 0.023145936 0.24441552 0.543746 -0.15363196
-0.48303902 0.07442397 -0.23220906 0.21242176 0.1700881 -0.14836603 -0.12411638 -0.3451558
-0.18179232 0.05152288 0.18173516 -0.461118 0.1973784 -0.18221635 -0.133929 -0.06988568
-0.11479584 0.116079085 -0.42894152 0.31082052 -0.21841854 -0.27375442 0.39629102 0.020950774
-0.0006529012 0.51693994 -0.01606162 0.259855 0.1896633 0.38060835 -0.39466026 -0.20521472
0.17291279 0.1979468 -0.4243522 -0.16189604 0.22030064 0.36659274 0.25104213 0.22826748
0.12029491 0.24446326 0.4674409 0.41426194 0.250859 0.46792772 0.40536565 0.069096506

arith.constant2 f4 [10]
00000000: da91 8bbd a69a c9bd 2df7 96bd e250 97bd
00000010: b4a8 a93d 7264 92bd bb3a 87bd 3824 a2bd
00000020: e6ab 823d 6bc8 a4bd
-0.06814928 -0.0984395 -0.07371364 -0.07388474 0.08284131 -0.07148065 -0.06602999 -0.079170644
0.06380443 -0.08046039

sequential_1/dense_1_2/BiasAdd/ReadVariableOp f4 [16]
00000000: bb2f 25bc 54f3 6fbd 191a 1bbd 6080 9b3d
00000010: a2a0 223e 86c2 7abd 32cb 893d 7690 023e
00000020: 09e3 2abd 195c ed3d 6fce 54bd 4703 e93d
00000030: fb15 053e 4eb6 3cbd 23e3 c33d 059f 0c3e
-0.010082181 -0.058581665 -0.037866686 0.07592845 0.15881589 -0.06122067 0.067282096 0.1275042
-0.041720424 0.11589832 -0.051954683 0.11377578 0.12996666 -0.046072297 0.09564807 0.13732536

sequential_1/dense_1/BiasAdd/ReadVariableOp f4 [32]
00000000: fddf e13c a602 e23d 9e83 d83c c37b cc3c
00000010: de4c 3fbd cda2 28bd d39e 343d 60cc b73d
00000020: 9c61 8ebd c733 af3b 0d95 1e3d 8568 a83d
00000030: a17a 613d 1034 033e 7fe6 2bbd 8ad7 55bd
00000040: d7ca b1bd 1dd4 7c3d 91c1 71bd 057c 7ebd
00000050: a1c5 c93d 9532 813d f91a 2e3d b5f1 173d
00000060: 662f 4fbc c488 a9bb 43d4 253d 50ad 503c
00000070: d36d 0d3e 1946 b13d a18a f43c 4e8a a83d
0.027572626 0.110356614 0.026429947 0.024961358 -0.046704166 -0.041170884 0.04409678 0.08974528
-0.06952211 0.0053467485 0.038716365 0.082230605 0.05504859 0.12812829 -0.041967865 -0.052207507
-0.08681267 0.061725724 -0.05902249 -0.062129993 0.09852148 0.06308476 0.042506192 0.037095744
-0.012645578 -0.0051737744 0.04048563 0.012736633 0.13811426 0.08655948 0.02985126 0.082295045

sequential_1/dense_1/MatMul i1 [32, 42]
00000000: 24a4 4939 65e4 2c06 65cc 3c9f 51f8 6da1
00000010: 7fc3 792f 7ef5 5d3b 3d0d 7821 4d12 f8c8
00000020: 633c 04a3 ca3e 441d 3e2c d036 6de4 61fa
00000030: 3802 52fc 7fee 5fd1 25f7 660d 38f3 60d3
00000040: 2916 7613 f40a 5518 0d0f fede e4ba bb07
00000050: d2e9 dcee 1d06 b77f d950 0dfb f740 d42d
00000060: cb36 c220 0bb4 ca3a b703 e622 a534 dc38
00000070: 9927 f327 a218 acef f106 e207 a4fe 0939
00000080: dacf 1fc9 d23a e0f3 0f30 10f2 1c01 010a
00000090: fc2f 28c2 de23 2beb eabb f9d5 17d0 c005
000000a0: faec 811d a315 c304 4939 6c42 eaa7 a6cd
000000b0: e916 06b1 aedb 2a70 304a 7250 7bc4 b066
000000c0: b1e3 fe28 f82f e742 172a f7b0 7f02 3349
000000d0: af7c 9840 2aa0 fac0 ae20 02b7 604b b9b0
000000e0: 333a 1822 ad64 2db5 5e26 3efb 3b26 562d
000000f0: 39d9 5d46 a539 6e3a 9445 8157 4f32 21f6
36 -92 73 57 101 -28 44 6
101 -52 60 -97 81 -8 109 -95
127 -61 121 47 126 -11 93 59
61 13 120 33 77 18 -8 -56
99 60 4 -93 -54 62 68 29
62 44 -48 54 109 -28 97 -6
56 2 82 -4 127 -18 95 -47
37 -9 102 13 56 -13 96 -45
41 22 118 19 -12 10 85 24
13 15 -2 -34 -28 -70 -69 7
-46 -23 -36 -18 29 6 -73 127
-39 80 13 -5 -9 64 -44 45
-53 54 -62 32 11 -76 -54 58
-73 3 -26 34 -91 52 -36 56
-103 39 -13 39 -94 24 -84 -17
-15 6 -30 7 -92 -2 9 57
-38 -49 31 -55 -46 58 -32 -13
15 48 16 -14 28 1 1 10
-4 47 40 -62 -34 35 43 -21
-22 -69 -7 -43 23 -48 -64 5
-6 -20 -127 29 -93 21 -61 4
73 57 108 66 -22 -89 -90 -51
-23 22 6 -79 -82 -37 42 112
48 74 114 80 123 -60 -80 102
-79 -29 -2 40 -8 47 -25 66
23 42 -9 -80 127 2 51 73
-81 124 -104 64 42 -96 -6 -64
-82 32 2 -73 96 75 -71 -80
51 58 24 34 -83 100 45 -75
94 38 62 -5 59 38 86 45
57 -39 93 70 -91 57 110 58
-108 69 -127 87 79 50 33 -10
