model/keypoint_classifier_new/keypoint_classifier.tflite (tflite, 6640 bytes, 6 tensors)

arith.constant f4 [7, 16]
000000 28 dd 70 bf a0 a3 45 3f 97 fa f4 be bb a9 60 bf
       -0.9408746 0.77202797 -0.47847435 -0.8775899
000010 5a 16 17 3f 74 db 3f 3e 33 06 6b be 90 a7 c2 3e
       0.5901848 0.18736058 -0.22951584 0.38018465
000020 b1 a5 6e bf 75 57 86 3f cf 35 bc bc fa 64 22 3f
       -0.93221575 1.049544 -0.022974877 0.6343533
000030 eb f3 c1 3e 10 02 e8 3e 91 5b 83 bf ee 25 23 bf
       0.37881407 0.45314074 -1.0262319 -0.6372975
000040 2c f3 6b bf ce 3b e9 3e bb b4 1d bf 2a f3 76 3f
       -0.92167926 0.4555344 -0.616039 0.9646479
000050 30 74 09 3f 77 42 a6 be 10 54 9f bf 9a 7c 84 bf
       0.53692913 -0.32472584 -1.2447529 -1.0350525
000060 f9 fc b1 bf e0 f5 45 bf a5 ff 5b be 8d e1 82 bf
       -1.3905326 -0.773283 -0.2148424 -1.0225083
000070 9f 6f 11 3f bb 12 37 3f c2 17 31 3f b0 a0 2b be
       0.56810945 0.71512955 0.69176877 -0.16760516
000080 f7 e8 e0 be 3e fe db 3e 1c 09 f9 3e 93 75 99 be
       -0.43927738 0.4296741 0.48639762 -0.29972515
000090 4a 85 98 3e dd c0 2a bf b8 58 ed 3d 38 cd 0f be
       0.2978919 -0.66700536 0.115891874 -0.14043128
0000a0 84 3c 9b 3e 12 9f a4 be fc d7 23 bf e6 48 0a 3f
       0.30319607 -0.3215261 -0.6400144 0.54017484
0000b0 ff cd a6 bf e8 76 cd be 70 e9 e7 3d fb 02 3d 3f
       -1.3031615 -0.4012978 0.113238215 0.7383267
0000c0 df 42 83 3f cd 20 85 bf 58 b4 19 bf ac 9f dc 3e
       1.0254782 -1.0400635 -0.6004081 0.4309057
0000d0 0a 49 b7 3e cf 9c 33 3d b8 12 7e 3e 2d c4 83 bf
       0.35797912 0.043850716 0.24811828 -1.0294243
0000e0 73 7b 05 3f a9 a1 42 be 6f cf 3a 3f 2e 3f 6c bf
       0.52141494 -0.19006981 0.7297277 -0.92283905
0000f0 1f 4b 5f 3f a2 6e 7c bf 58 dd fc 3e 0c 48 e0 be
       0.87224 -0.9860631 0.49387622 -0.43804967
000100 54 b4 17 be 2c e1 8b bf 20 16 9e bf 73 ae 20 3f
       -0.14814883 -1.0928092 -1.2350502 0.6276619
000110 cc 76 8d be 1f 8e 16 bf 9c 50 28 3f d0 0f 05 3f
       -0.27629697 -0.5881061 0.65748 0.5197725
000120 97 8b 20 3d ba 83 fb bd 5b 8f 39 bf 8a bb 17 3f
       0.039195623 -0.12280984 -0.7248437 0.59270537
000130 6c f6 0d bf 20 a0 f7 3e 62 bd 5b bf a7 92 3a 3f
       -0.55454135 0.48364353 -0.8583585 0.72880024
000140 b3 cb 42 3f 1a 52 3d 3e b2 48 b3 3e a4 d0 6c 3e
       0.7609207 0.1848835 0.350164 0.23126465
000150 aa 6c 83 bf 57 af 8b 3f ce 5f 85 3e be 2e fc 3d
       -1.0267537 1.0912884 0.26049656 0.12313603
000160 f1 12 f9 3e 32 ab 9b 3d 53 01 27 3f 4d 40 0c 3f
       0.48647264 0.07601012 0.65236396 0.54785615
000170 83 e6 02 3e 5b 7e f4 be 5d 07 82 3d 8d 7c 8d be
       0.12783246 -0.47752652 0.06349061 -0.27634087
000180 3a d3 4b bf 49 ac 56 bf 17 48 6c bf e6 ed 8b 3c
       -0.7961918 -0.83856636 -0.922975 0.017081212
000190 76 e2 54 bf f6 65 81 3e 2b d8 2e bf 32 6b 5e bf
       -0.8315805 0.25273103 -0.68298596 -0.8688232
0001a0 a8 f5 77 bf 3e 49 5e bf 9d 32 d0 be 8b 9f 9e bf
       -0.96859217 -0.8683051 -0.40663615 -1.2392439
0001b0 f1 4c c3 bf 2f 1f d9 be 72 aa 8f bf 7f c2 60 bf
       -1.5257856 -0.42406604 -1.1223891 -0.8779678

arith.constant1 f4 [16, 32]
000000 5a 09 e1 be 81 91 34 3c 30 44 a6 3e 93 cb c7 bd
       -0.43952447 0.011021019 0.32473898 -0.097556256
000010 f7 d2 8a be 99 7d 99 be ac c2 30 bf db a0 dd 3e
       -0.27114078 -0.29978636 -0.69047046 0.43286785
000020 96 af 42 3e d0 49 f5 3e 10 c3 74 bf 79 6c 41 3f
       0.19012293 0.47907877 -0.9561014 0.7555614
000030 60 30 2b 3d a1 f1 b9 be b1 14 1c bf 75 ea 7f bf
       0.04179418 -0.3631716 -0.6096907 -0.9996713
000040 b9 57 8f bf 55 e2 50 be 8a 8e 47 bf cb b9 90 bd
       -1.1198646 -0.20398839 -0.7795187 -0.07066687
000050 51 e2 60 3d c8 52 56 bf 73 69 ff bd 0f aa 52 3e
       0.054903332 -0.83720064 -0.12471285 0.20572685
000060 49 37 b1 be a5 5d e9 3d 4f 56 20 bf 62 00 f1 3e
       -0.34612492 0.113948144 -0.62631696 0.47070605
000070 d7 5c f4 3e 40 a1 12 bf 2b 89 16 bf 83 32 d0 be
       0.4772708 -0.572773 -0.5880305 -0.40663537
000080 2d 6a 19 3e de 18 6b 3e 4e 37 28 bf 02 89 86 be
       0.14981909 0.22958705 -0.6570939 -0.26276404
000090 a4 85 1a be 3b 92 9a be e1 79 1a 3e 84 05 cd 3e
       -0.15090042 -0.3018969 0.15085556 0.4004327
0000a0 3e 86 88 3f 98 34 38 3c 17 e8 44 be d1 38 94 be
       1.0665967 0.011243008 -0.1922916 -0.28949597
0000b0 3d ba a6 3e 5b 8c db 3e b9 df 2c 3f f8 cc 3b 3e
       0.32563964 0.4288052 0.67528874 0.18339908
0000c0 93 95 86 3e 67 04 d9 3e 21 f9 ea be fd d7 c9 be
       0.2628599 0.4238617 -0.45893195 -0.39422598
0000d0 ce 48 82 3e 4a 4b a7 3e c3 75 59 be 86 70 5a bd
       0.2544617 0.32674628 -0.21236329 -0.053329967
0000e0 40 c8 60 bd 7f be b4 3e ef 06 ab 3f 6b 56 b6 be
       -0.054878473 0.35301587 1.3361491 -0.35612807
0000f0 8d 71 b1 3d d8 9a 8f be 09 5e c6 3e a6 0e 4d 3f
       0.08664236 -0.28047824 0.38743618 0.80100477
000100 1f 49 ff 3d d0 3b c3 3d ea 07 34 bf f1 9b 44 3d
       0.124651186 0.09532893 -0.70324576 0.04800028
000110 70 fe 82 be 1b a7 ab be 29 07 14 3f 58 ba 04 be
       -0.25584745 -0.3352593 0.57823426 -0.1296171
000120 56 4b cb 3d 99 c1 7c 3e 90 1e 8d bd 28 78 04 bf
       0.099264786 0.24683227 -0.06890595 -0.51745844
000130 b1 ce 39 3e 4d 26 fe 3e 32 20 21 3f 69 8b 7a 3e
       0.18145253 0.49638596 0.6293975 0.24467243
000140 bb 98 27 3e 54 c2 0b 3e e0 3b 4b be 30 af 2c be
       0.16366856 0.13648349 -0.19847059 -0.16863704
000150 f8 4f bb 3e a1 26 50 bf 63 6e 8d be db e3 24 3e
       0.3658445 -0.81308943 -0.2762328 0.16102545
000160 f9 83 91 be 53 5d 1c 3e a5 23 71 3f b0 af 4a be
       -0.28421 0.15269975 0.94195014 -0.19793582
000170 9e c7 07 3e 01 e7 9b 3d 35 18 43 bf a7 ec e3 3e
       0.13259742 0.0761242 -0.7620881 0.4451649
000180 06 c6 96 bd 9f c5 a9 bf bd a8 d1 3e a7 7a 79 bf
       -0.07361989 -1.3263434 0.4094905 -0.9745278
000190 8b cf 1d bf 61 d5 54 be d3 d1 90 3e 9e e5 83 3d
       -0.6164481 -0.20784523 0.28285083 0.064402804
0001a0 7a b4 2a be 6a c4 18 bf 0c 4e 00 3e 5b e0 aa 3e
       -0.16670409 -0.59674704 0.12529773 0.33374295
0001b0 bb 27 05 3e a3 97 2e be 21 21 e2 be d8 cc de 3e
       0.13003437 -0.17050032 -0.441659 0.43515658
0001c0 a2 1e d3 3e a1 75 72 be d0 46 ff be 66 65 fb 3e
       0.41234308 -0.23677684 -0.49858713 0.49100798
0001d0 c4 79 2c 3e a1 57 3c 3d 35 ae b6 be 6a 27 e2 3c
       0.16843325 0.045982007 -0.35679784 0.027606685
0001e0 0d 06 1b bf 99 23 ff 3d ce 16 13 bc 9e d7 86 be
       -0.6055611 0.124579616 -0.008977605 -0.26336378
0001f0 89 4d bf 3d 0d 08 7e bd a3 aa fa 3e 40 2f 07 bd
       0.093409605 -0.062019397 0.4895831 -0.033004045
000200 0f 7c 13 bf 46 a7 4c 3f 2a d8 93 3f 33 5f 80 3d
       -0.57611173 0.7994274 1.1550343 0.06268158
000210 d7 f8 3d 3e 24 0c 8c bf 97 8b 82 3d 01 ef 5a 3e
       0.18551956 -1.0941205 0.06374281 0.21380235
000220 0a 66 70 bd 7f 2b 78 3d 0f 43 88 be 5f 64 50 be
       -0.058691062 0.060588356 -0.26613662 -0.20350789
000230 05 29 c9 3e ee b6 ef 3e 33 e9 01 be a2 64 a1 be
       0.39289108 0.46819252 -0.12686615 -0.3152209
000240 ef 2a 27 be 13 03 f8 3e a8 92 92 be 8e 97 1e be
       -0.16324972 0.48439845 -0.28627515 -0.15487501
000250 1d de 33 be c7 0f e0 3d 5f 09 33 bf e5 4f 53 be
       -0.17565198 0.10940509 -0.69936174 -0.20635946
000260 a5 81 b5 bd 49 22 96 3e 07 31 c0 3f 5d 9b 87 be
       -0.08862618 0.29323032 1.5014962 -0.2648572
000270 76 f5 64 3e 88 06 cc bd 2f 0b c7 3e 45 53 f1 3e
       0.22359261 -0.09962183 0.3887572 0.47133842
000280 5f 57 9f bf 4f 58 69 be a5 12 eb be 47 c0 20 bf
       -1.2448539 -0.22787593 -0.45912662 -0.6279339
000290 21 51 9b bd 55 9a 5a be 49 e9 f6 bd 2c 06 b3 3e
       -0.075838335 -0.21347935 -0.12056214 0.34965646
0002a0 7e 7a 40 3f 2a d3 0b 3f b7 29 54 bf e9 30 d4 3e
       0.7518691 0.54619086 -0.8287615 0.41443565
0002b0 cc ae 45 3f 97 10 2e be 8b 93 3c bf fd 8e b1 be
       0.77219844 -0.16998516 -0.7366263 -0.34679404
0002c0 09 5a 1d be 01 c1 43 bd da 0e a1 bf ef d9 29 be
       -0.15366377 -0.047791485 -1.2582657 -0.16587041
0002d0 10 c4 0e 3e 1a ed 6a bf 3c ed 02 bd 29 23 9f 3e
       0.1394198 -0.9176804 -0.031964526 0.31081513
0002e0 da 35 17 bf 35 eb 13 3e a5 95 55 bf d2 83 6c 3e
       -0.59066546 0.14445193 -0.83431464 0.2309716
0002f0 f3 b9 c6 3d 47 94 19 bf a2 eb df be ec 4c 24 bf
       0.09703436 -0.5999188 -0.4373446 -0.64179873
000300 d1 60 0b 3f ab f4 90 3f 33 a1 2b 3e 5c 9b 1a 3f
       0.54444605 1.1324667 0.16760711 0.6039331
000310 48 ce 13 3e 22 cb f4 be 79 bc 18 3f 88 40 88 3e
       0.14434159 -0.47811228 0.59662586 0.26611733
000320 32 21 45 bc 76 18 de 3c 8e a8 cb 3e a6 5b 0a 3f
       -0.01203184 0.027111273 0.39777035 0.54046094
000330 ae 04 72 be fc 3c b5 3e 90 7f 91 3e 3c 26 67 bc
       -0.23634598 0.3539809 0.28417635 -0.014108237
000340 42 57 c1 3c 13 2a 1c 3d b2 a2 6e 3f ff 78 65 3f
       0.023601178 0.038126063 0.93217003 0.8963775
000350 0c 53 9c 3a 2d 4c 1a 3e 34 8c 72 bf 46 b0 a4 be
       0.0011926605 0.15068121 -0.94745183 -0.32165736
000360 f6 ed 68 3c d0 a6 d1 bb 50 bf 50 be df d5 a8 3e
       0.014216891 -0.0063980594 -0.2038548 0.3297567
000370 09 b2 0d be e3 44 b9 3e cc ad 15 be 04 cd d0 3d
       -0.13837446 0.3618537 -0.1461708 0.101953536
000380 b3 c7 5f 3f d8 6a 8a 3f ed 9d 2e bf a0 a0 0c bf
       0.8741409 1.0813856 -0.68209726 -0.54932594
000390 75 2f 1a 3d 4c 1d 10 be f5 df 0f 3d 1c 1d d0 3e
       0.037642915 -0.14073676 0.03512569 0.4064721
0003a0 cf f6 c8 bf 18 4c 57 3f 0d 9c d9 3e 00 62 a1 3e
       -1.570032 0.84100485 0.4250187 0.3152008
0003b0 ac 8d 7c bd 2d 59 1f 3d 9b c1 aa 3d 6a 73 1f 3f
       -0.061658546 0.038903404 0.083377086 0.6228548
0003c0 82 27 1d 3f c8 1e 07 3f 58 35 5a 3f 69 33 16 bd
       0.6138841 0.52781343 0.85237646 -0.036670122
0003d0 54 7a 50 3f 2a f3 81 bd 51 40 13 3d 8c fc a3 3e
       0.8143666 -0.06345208 0.03595001 0.32028615
0003e0 5a 81 92 3f d0 53 f8 3c 7f 56 92 be 90 21 a1 bd
       1.1445725 0.030313402 -0.28581616 -0.0786773
0003f0 f4 ac 59 3e c8 7a ae bd 7f d4 ee 3e 93 c0 8a 3d
       0.21257383 -0.085195124 0.46646497 0.06775012

arith.constant2 f4 [7]
000000 42 77 d3 be dd f4 76 3e d7 3c ec bd c2 ff 2c 3f
       -0.41301924 0.24116845 -0.11535042 0.67577755
000010 ab a3 a2 3e 27 ef 0a bf 24 7c bb be
       0.31765494 -0.5427117 -0.3661815

sequential_1/dense_1_2/BiasAdd/ReadVariableOp f4 [16]
000000 ff 38 ff 3e 5f 81 4c 3e 4b 80 41 3f 6c 6d 1a 3f
       0.49848172 0.19971226 0.75586385 0.60323215
000010 23 8a 54 3f f2 d0 f3 bc 58 e4 03 3e 8a 4f 26 3c
       0.8302328 -0.029762719 0.12880075 0.0101507995
000020 fd 1f 13 be 24 78 10 be c5 07 83 be 4a fa 5c bd
       -0.14367671 -0.1410833 -0.25591865 -0.05394963
000030 34 54 59 3f be c9 54 3e 18 43 6a 3f c5 00 b6 3e
       0.8489411 0.20780084 0.91508627 0.35547462

sequential_1/dense_1/BiasAdd/ReadVariableOp f4 [32]
000000 94 24 13 bf da 74 07 bf ed b8 91 3d d5 6b 5b be
       -0.5747769 -0.52912676 0.0711535 -0.21427853
000010 f8 34 73 3d 24 65 3f bc bc 70 40 bf b7 9d 26 bf
       0.059376687 -0.011681829 -0.7517202 -0.65084404
000020 d1 95 4b bf 02 12 2b bf e2 6f 13 3c 42 d4 66 be
       -0.79525477 -0.6682435 0.008998843 -0.22541907
000030 ac 4c c6 be be 68 4b bf 9c 27 81 bf c1 04 50 bd
       -0.3873037 -0.794567 -1.0090213 -0.050785784
000040 cd d7 6e be ad 53 c2 be 93 a3 0c bf 62 86 57 bc
       -0.23324509 -0.37954465 -0.54937094 -0.013154598
000050 13 cd 5c bf e1 3d f9 be ba 4c ec 3e b9 70 84 be
       -0.8625042 -0.48680022 0.46152288 -0.2586725
000060 86 17 92 be ce 2b 62 be 10 66 b0 be 7c 38 4f bd
       -0.28533572 -0.22087023 -0.34452868 -0.050590977
000070 78 39 05 be cc e6 84 be 99 2e 8f 3d d0 95 02 bf
       -0.13010204 -0.25957334 0.0699131 -0.51009846

sequential_1/dense_1/MatMul i1 [32, 42]
000000 1d 08 dc 81 f7 d3 fe f7 0d f6 19 f2 f4 05 f0 09
       29 8 -36 -127 -9 -45 -2 -9 13 -10 25 -14 -12 5 -16 9
000010 eb fc 2f fb f3 03 07 05 16 02 37 fb ef 07 0d 0a
       -21 -4 47 -5 -13 3 7 5 22 2 55 -5 -17 7 13 10
000020 29 d9 2a 02 bc 04 be 03 8d e5 04 09 fd 1b fe 05
       41 -39 42 2 -68 4 -66 3 -115 -27 4 9 -3 27 -2 5
000030 fe 00 ff 04 05 03 02 ff 02 02 01 02 f9 03 02 fe
       -2 0 -1 4 5 3 2 -1 2 2 1 2 -7 3 2 -2
000040 ff 02 01 01 e6 03 00 00 00 04 f9 06 f6 03 fb 00
       -1 2 1 1 -26 3 0 0 0 4 -7 6 -10 3 -5 0
000050 00 81 15 06 ec f4 f3 57 fa 26 fe 1c 04 18 fd 0e
       0 -127 21 6 -20 -12 -13 87 -6 38 -2 28 4 24 -3 14
000060 04 08 02 0b 02 81 0a 0b 01 10 02 0d 06 0e 02 07
       4 8 2 11 2 -127 10 11 1 16 2 13 6 14 2 7
000070 05 11 01 1d 02 18 00 02 fc 0d f0 14 e6 0e f7 fe
       5 17 1 29 2 24 0 2 -4 13 -16 20 -26 14 -9 -2
000080 50 04 2f ed 0b ec f9 ee 2f 0d 06 09 fd 10 f2 09
       80 4 47 -19 11 -20 -7 -18 47 13 6 9 -3 16 -14 9
000090 44 0f 02 06 05 06 22 09 32 10 ed 01 f3 fc 1c 08
       68 15 2 6 5 6 34 9 50 16 -19 1 -13 -4 28 8
0000a0 f1 16 d7 f8 83 e3 81 13 fe f4 fd 1e ed 0e fd d2
       -15 22 -41 -8 -125 -29 -127 19 -2 -12 -3 30 -19 14 -3 -46
0000b0 0a cd e4 0c fa 0f fd 11 fd 08 ec 06 f4 09 f7 11
       10 -51 -28 12 -6 15 -3 17 -3 8 -20 6 -12 9 -9 17
0000c0 f1 0d e7 08 fd 07 fe 01 00 fc f0 05 0c 09 3d 11
       -15 13 -25 8 -3 7 -2 1 0 -4 -16 5 12 9 61 17
0000d0 7f 0e 0a 16 62 81 46 ac 1e a6 1e d3 1a 11 fe 15
       127 14 10 22 98 -127 70 -84 30 -90 30 -45 26 17 -2 21
0000e0 ff 1e fa 10 ec 18 f8 10 d7 fd c5 1c f0 29 01 1f
       -1 30 -6 16 -20 24 -8 16 -41 -3 -59 28 -16 41 1 31
0000f0 d5 33 b0 38 ea 36 e1 3d f5 23 fa 74 18 dd 0f 22
       -43 51 -80 56 -22 54 -31 61 -11 35 -6 116 24 -35 15 34
