keypoint_classifier.tflite (tflite, 6640 bytes, 6 tensors)

arith.constant f4 [7, 16]
0.52667004 -0.65231234 0.33300415 0.80482036 -0.114847 0.70261073 -0.2839514 0.39055935
-1.0825506 -1.1637353 0.32627875 0.97832984 0.162698 0.6755617 -0.5917942 -0.515642
0.8589554 0.7913823 -0.611873 0.6405788 -0.5307868 0.122303605 -0.2163957 -0.39062697
0.7390207 -1.0303787 -0.59211445 0.017812762 0.6197304 -0.9995426 -0.6937439 -1.1231463
0.23295438 -0.28878102 0.49919647 -0.65345615 -0.6310622 -0.3239943 0.6440591 -0.10383105
0.12680344 0.35167873 -0.8639522 -0.46698514 0.40515378 1.0724379 -0.12836157 0.20047504
0.6045999 1.0194173 0.2929948 -0.549453 0.17530853 -1.0068737 -0.6322695 -1.5257796
-0.7298628 -0.4156649 0.6204794 -1.1997623 -0.57970655 -0.67851573 -0.23519856 0.9023055
-0.18873662 -0.5140629 -0.27936387 -0.3152471 0.4749537 0.24860087 0.6096471 0.42737514
0.31954756 -0.49601284 -0.38086367 0.061075 -1.4282752 0.798885 0.58726555 0.3716228
-0.536033 0.10092808 -0.33684185 -0.8353127 -0.107344635 -0.4032716 -0.83995366 -0.0649826
-0.021066608 0.8458919 0.7107654 0.19790523 0.3992499 -0.29510495 0.7412339 -0.1300854
-0.8370824 -0.8240027 -0.015256247 -0.17953278 -0.6984831 -0.7132511 -0.8102571 -0.39745256
-2.4870822 -0.25252396 -0.77712417 -1.2352579 -0.13273405 -1.0767908 -0.6167256 -0.84039724
00000000: d9d3 063f f1fd 26bf 857f aa3e b508 4e3f
00000010: e734 ebbd 4cde 333f 1462 91be 65f7 c73e
00000020: 0591 8abf 47f5 94bf 020e a73e d373 7a3f
00000030: 4e9a 263e 9df1 2c3f d37f 17bf 1d01 04bf
00000040: 80e4 5b3f 0898 4a3f b5a3 1cbf f9fc 233f
00000050: a5e1 07bf 507a fa3d d696 5dbe 4200 c8be
00000060: 7630 3d3f 73e3 83bf d094 17bf 12ec 913c
00000070: a7a6 1e3f 06e2 7fbf 3399 31bf 42c3 8fbf
00000080: 988b 6e3e 1bdb 93be ae96 ff3e e748 27bf
00000090: 4b8d 21bf 95e2 a5be 0fe1 243f 60a5 d4bd
000000a0: c3d8 013e 3c0f b43e f92b 5dbf ad18 efbe
000000b0: 5170 cf3e a545 893f 3771 03be 5449 4d3e
000000c0: 0fc7 1a3f 447c 823f 6a03 963e f4a8 0cbf
000000d0: 1484 333e 3de1 80bf 6adc 21bf bf4c c3bf
000000e0: 4ad8 3abf 08d2 d4be bdd7 1e3f d091 99bf
000000f0: a667 14bf 35b3 2dbf e4d7 70be 7efd 663f
00000100: 2c44 41be a099 03bf c808 8fbe 1168 a1be
00000110: 222d f33e 3a91 7e3e d511 1c3f ead0 da3e
00000120: bd9b a33e 65f5 fdbe 9000 c3be c729 7a3d
00000130: b9d1 b6bf ba83 4c3f 0957 163f 5845 be3e
00000140: 7539 09bf 62b3 ce3d 8976 acbe 0ed7 55bf
00000150: 81d7 dbbd 9d79 cebe 3407 57bf 9915 85bd
00000160: e193 acbc 5f8c 583f b9f4 353f aba7 4a3e
00000170: 7c6a cc3e ff17 97be 81c1 3d3f 1b35 05be
00000180: 084b 56bf d7f1 52bf 56f5 79bc 71d7 37be
00000190: cacf 32bf a097 36bf 026d 4fbf e77e cbbe
000001a0: 5b2c 1fc0 d24a 81be 9cf1 46bf ee1c 9ebf
000001b0: 6feb 07be 48d4 89bf bbe1 1dbf 4624 57bf

arith.constant1 f4 [16, 32]
0.020019503 0.20781414 -0.17387794 0.45647812 -0.77736187 -0.14415567 -0.3402422 -1.0173513
-0.26391697 -0.009993638 0.7986875 0.36925903 -0.26426122 -0.22663279 0.6127028 -0.27411497
-0.1501856 0.29358098 0.30830497 0.14569749 -0.27118257 0.34577265 -0.60044557 -0.3584197
0.10004608 0.49712896 -0.89314455 -0.08633991 -0.09532218 -0.3064734 -0.5757275 -0.7281567
0.09020134 1.128831 -0.10605644 -0.35735404 -0.25766435 -0.8318084 0.030056354 -0.1791259
0.033888347 -1.2931566 0.9386415 0.35556376 0.18789206 0.0660555 0.43455538 -0.3200413
-1.3649794 0.42708892 -1.2498384 0.18537623 0.10334154 -0.89539427 -0.36803788 0.2553806
-0.3551006 0.20704554 -0.5904878 -0.5847551 -0.47319317 0.43578553 0.36136112 -0.09230582
0.11264771 0.47778964 -0.37057978 -0.9562647 0.04058327 -0.28273168 0.17152873 -0.48556557
-0.013531739 -0.0034825054 0.06775396 0.006367873 0.3745968 0.03882489 -0.19489847 0.1512743
0.1273563 0.15490933 0.9479674 0.008633399 0.12153246 -0.62476265 -0.13001257 0.1596942
0.53270817 -0.0016319368 -0.30796564 0.24944541 -0.0043297485 0.25711456 -0.15504943 -0.16558762
-0.40803802 -0.57225204 0.22007237 0.09901713 -0.031853687 -0.27070093 -0.9321605 -0.21813627
-0.91978604 0.33252892 0.78754306 0.31156164 -1.0520107 -0.9665878 1.0459069 0.20340665
0.29816243 0.1589799 0.504133 -0.11874096 -0.81495285 -0.121892914 -0.8510747 -0.9129097
-0.66823506 0.4768261 0.43573615 -0.015410741 -0.25922772 -1.132253 -0.549673 -0.23409255
-0.18135959 -0.6458267 0.115795895 -0.16057688 0.12100843 0.29723147 0.2614564 0.0902413
0.018404502 0.73150474 0.40800714 0.016550006 0.084672384 -0.02432069 -0.7271133 0.22868143
0.7237758 0.38088432 -0.10364815 0.09535335 -0.11530632 -0.09849977 -0.3048492 0.4841759
-0.1319659 -0.49654174 0.43907458 0.31463975 -0.14572729 0.25389725 0.3762505 -0.358849
-0.077091895 0.10288764 0.36867064 0.13452438 0.043240063 -0.8807539 0.014902862 0.520857
-0.026306782 0.5143309 0.2515127 -0.6477735 -0.098812066 -0.09499086 0.70431566 0.1304123
0.4812507 -0.078412406 0.33373046 0.07767371 -0.12591381 -0.06019749 -0.14168295 -0.26332974
-0.37835437 -0.92976743 0.0021505437 -0.08988247 0.42959172 0.32804236 0.5227298 0.20336586
0.05365377 0.4407668 0.5352517 -0.8246795 -0.030780766 0.31987822 0.008038014 0.15669116
0.4351419 0.07321659 -0.04428509 -0.43383896 0.0200986 0.066424415 -0.5497016 -0.42383042
0.43861455 0.51973444 0.19539443 0.21815057 0.04794407 0.017435776 -0.23449029 0.32534173
-0.87422115 -0.69886357 0.16843174 0.08331612 -0.25851426 0.019869875 0.29042405 -0.5813668
0.17570934 -0.25325418 0.6920319 -0.5244971 0.45488334 0.12061263 0.20877343 0.54004484
0.6265068 0.53972954 -0.00041867007 -0.1471913 0.03560408 0.35872048 -0.4666331 -0.42895156
1.4892998 0.091164805 -0.30761355 0.5551162 0.2751218 0.024450622 0.1199347 0.07531224
0.25906888 0.37733585 0.86338794 -0.09362667 0.77316314 0.21096836 0.42860916 0.77900344
00000000: f1ff a33c 3bcd 543e 0f0d 32be 80b7 e93e
00000010: 3001 47bf 8b9d 13be 3a34 aebe 9138 82bf
00000020: 2020 87be 5bbc 23bc c976 4c3f 850f bd3e
00000030: 3f4d 87be 6d12 68be 17da 1c3f cc58 8cbe
00000040: 41ca 19be 3f50 963e 26da 9d3e b931 153e
00000050: 71d8 8abe 1d09 b13e cdb6 19bf c982 b7be
00000060: f6e4 cc3d b087 fe3e 1fa5 64bf fbd2 b0bd
00000070: 4638 c3bd 15ea 9cbe e162 13bf 7a68 3abf
00000080: 7bbb b83d 897d 903f 1e34 d9bd 1cf7 b6be
00000090: 95ec 83be 65f1 54bf be38 f63c c86c 37be
000000a0: 82ce 0a3d 2886 a5bf cf4a 703f 740c b63e
000000b0: c766 403e 1b48 873d 0b7e de3e 74dc a3be
000000c0: a5b7 aebf 66ab da3e b4fa 9fbf 44d3 3d3e
000000d0: bba4 d33d 8f38 65bf 766f bcbe 3fc1 823e
000000e0: bfcf b5be bf03 543e 352a 17bf 83b2 15bf
000000f0: 6046 f2be 481f df3e 5304 b93e d50a bdbd
00000100: d8b3 e63d d8a0 f43e a2bc bdbe c3cd 74bf
00000110: a53a 263d 35c2 90be 3aa5 2f3e 0d9c f8be
00000120: 3ab4 5dbc bf3a 64bb 97c2 8a3d 97a9 d03b
00000130: 27cb bf3e d906 1f3d 7793 47be a6e7 1a3e
00000140: b169 023e 8da0 1e3e fead 723f 1a73 0d3c
00000150: 03e6 f83d 72f0 1fbf 0422 05be e086 233e
00000160: 905f 083f b6e6 d5ba acad 9dbe 9e6e 7f3e
00000170: 90e0 8dbb 85a4 833e 47c5 1ebe cd8f 29be
00000180: 5cea d0be 1c7f 12bf a75a 613e 7ec9 ca3d
00000190: 0379 02bd 5099 8abe 12a2 6ebf 1d5f 5fbe
000001a0: 1977 6bbf 3b41 aa3e 6c9c 493f 0285 9f3e
000001b0: 49a8 86bf 4c72 77bf 47e0 853f d549 503e
000001c0: bfa8 983e a0cb 223e dc0e 013f 762e f3bd
000001d0: c0a0 50bf fea2 f9bd 08e0 59bf 73b4 69bf
000001e0: 7411 2bbf 8d22 f43e cf18 df3e 557d 7cbc
000001f0: 7fb9 84be abed 90bf 5fb7 0cbf f5b5 6fbe
00000200: 54b6 39be e654 25bf 6626 ed3d 446e 24be
00000210: 45d3 f73d b92e 983e 9ddd 853e 6ed0 b83d
00000220: 0ac5 963c e543 3b3f 50e6 d03e e193 873c
00000230: b768 ad3d 2f3c c7bc 1924 3abf 772b 6a3e
00000240: 5f49 393f 4503 c33e 7b45 d4bd 9e48 c33d
00000250: b825 ecbd 3fba c9bd 3215 9cbe e7e5 f73e
00000260: 1222 07be b83a febe 62ce e03e 7618 a13e
00000270: 8939 15be d2fe 813e e8a3 c03e 0ebb b7be
00000280: 5be2 9dbd c1b6 d23d 66c2 bc3e c2c0 093e
00000290: 7e1c 313d 1679 61bf 222b 743c e256 053f
000002a0: 5281 d7bc 31ab 033f 46c6 803e 7cd4 25bf
000002b0: fb5d cabd 918a c2bd 084e 343f cd8a 053e
000002c0: 7e66 f63e af96 a0bd b8de aa3e 6513 9f3d
000002d0: 8def 00be a591 76bd 5615 11be 28d3 86be
000002e0: aab7 c1be 3d05 6ebf 23f0 0c3b 4d14 b8bd
000002f0: 72f3 db3e 2bf5 a73e 9fd1 053f 243f 503e
00000300: 0ec4 5b3d 30ac e13e 4106 093f 321e 53bf
00000310: f227 fcbc 14c7 a33e e0b1 033c a673 203e
00000320: ebca de3e 94f2 953d 4864 35bd 2420 debe
00000330: d2a5 a43c 8609 883d 3eb9 0cbf 4d00 d9be
00000340: 1692 e03e 510d 053f 7a15 483e dd62 5f3e
00000350: 0061 443d 79d5 8e3c 391e 70be 3193 a63e
00000360: f5cc 5fbf b9e8 32bf 5f79 2c3e a4a1 aa3d
00000370: fb5b 84be 26c6 a23c 76b2 943e 74d4 14bf
00000380: 26ed 333e 88aa 81be 0129 313f 7145 06bf
00000390: 78e6 e83e c103 f73d b4c8 553e 6140 0a3f
000003a0: c062 203f b72b 0a3f f280 dbb9 51b9 16be
000003b0: 95d5 113d 36aa b73e 89ea eebe 8a9f dbbe
000003c0: 60a1 be3f 9db4 ba3d 867f 9dbe 181c 0e3f
000003d0: c4dc 8c3e ac4c c83c 53a0 f53d 4e3d 9a3d
000003e0: ada4 843e 2a32 c13e fe06 5d3f 57bf bfbd
000003f0: 05ee 453f 1708 583e a972 db3e c56c 473f

arith.constant2 f4 [7]
-0.33210385 0.2795424 -0.17108077 0.72875696 -0.17013289 -0.3457944 -0.2428203
00000000: 8409 aabe 2e20 8f3e cc2f 2fbe d18f 3a3f
00000010: 5137 2ebe f70b b1be e2a5 78be

sequential_1/dense_1_2/BiasAdd/ReadVariableOp f4 [16]
0.8433333 1.0663164 0.4272022 0.38727292 0.3860496 0.1448558 -0.028249098 -0.10452325
0.7268389 0.2255458 0.2715841 0.2522399 0.7259907 0.03594198 -0.1291992 0.42041704
00000000: b1e4 573f 0e7d 883f 3fba da3e a348 c63e
00000010: 4ba8 c53e 1455 143e a76a e7bc 4910 d6bd
00000020: 1d12 3a3f 7af5 663e 120d 8b3e 9725 813e
00000030: 87da 393f e637 133d cc4c 04be e740 d73e

sequential_1/dense_1/BiasAdd/ReadVariableOp f4 [32]
-0.45107186 0.13020654 0.008557689 -0.9706262 0.1864509 -0.023451086 -0.11471318 0.08490267
-0.49279228 -0.40627208 -0.06228093 -0.5348309 -0.6827337 -0.5577766 -0.3995205 -0.84343094
-0.15898202 0.7597652 -0.5203878 -0.61790776 -0.13519235 0.23674542 -0.7651371 -0.28438595
-0.9749151 -0.48278442 -0.26002675 -0.32686615 -0.662663 -0.49479565 -0.4308195 -0.26283953
00000000: e4f2 e6be dd54 053e 8d35 0c3c f57a 78bf
00000010: fcec 3e3e 7e1c c0bc beee eabd 73e1 ad3d
00000020: 454f fcbe e502 d0be 4a1a 7fbd aeea 08bf
00000030: a3c7 2ebf 72ca 0ebf f38d ccbe 17eb 57bf
00000040: 2fcc 22be f97f 423f 2338 05bf 342f 1ebf
00000050: dd6f 0abe 646d 723e 06e0 43bf 099b 91be
00000060: 0994 79bf 852f f7be 3a22 85be 005b a7be
00000070: 48a4 29bf db55 fdbe 6094 dcbe e792 86be

sequential_1/dense_1/MatMul i1 [32, 42]
25 -12 69 -1 62 -11 39 -2
17 5 69 6 5 -4 -18 5
-25 6 73 7 -2 5 13 9
18 5 27 4 -30 -4 -27 -18
15 30 -24 11 -81 -13 -101 -31
-127 -8 6 17 -8 91 -7 40
0 41 2 44 8 10 0 0
-2 4 -4 -127 -5 13 2 19
4 49 -3 35 -13 6 0 10
5 35 0 38 -23 -6 -3 4
-2 21 -6 9 -25 -22 -40 -99
-11 -31 -6 -31 -12 -35 31 -7
-1 13 -12 14 -20 7 52 2
-3 10 2 8 12 -127 53 12
-8 22 -3 38 19 49 11 23
-31 30 -20 55 -2 53 13 -39
15 19 14 -25 -4 -21 -1 -24
12 -12 -11 3 2 16 4 10
33 -9 -16 -27 -14 -5 2 14
7 -18 -33 -48 -42 -97 27 -127
-25 -22 -4 -20 13 -7 6 27
28 -25 62 -36 -10 -41 -8 -105
-10 -127 1 9 -6 28 -9 26
7 7 30 20 9 39 12 28
25 -8 -8 27 -27 55 0 44
-15 9 4 53 -15 75 7 105
-25 86 -28 -5 17 2 -8 -18
-21 -37 -25 -33 -17 6 11 18
-5 18 -14 8 -20 10 3 16
11 5 -16 5 -27 14 2 27
7 -6 -5 9 -22 13 22 24
78 -3 127 16 19 -5 -9 -13
00000000: 19f4 45ff 3ef5 27fe 1105 4506 05fc ee05
00000010: e706 4907 fe05 0d09 1205 1b04 e2fc e5ee
00000020: 0f1e e80b aff3 9be1 81f8 0611 f85b f928
00000030: 0029 022c 080a 0000 fe04 fc81 fb0d 0213
00000040: 0431 fd23 f306 000a 0523 0026 e9fa fd04
00000050: fe15 fa09 e7ea d89d f5e1 fae1 f4dd 1ff9
00000060: ff0d f40e ec07 3402 fd0a 0208 0c81 350c
00000070: f816 fd26 1331 0b17 e11e ec37 fe35 0dd9
00000080: 0f13 0ee7 fceb ffe8 0cf4 f503 0210 040a
00000090: 21f7 f0e5 f2fb 020e 07ee dfd0 d69f 1b81
000000a0: e7ea fcec 0df9 061b 1ce7 3edc f6d7 f897
000000b0: f681 0109 fa1c f71a 0707 1e14 0927 0c1c
000000c0: 19f8 f81b e537 002c f109 0435 f14b 0769
000000d0: e756 e4fb 1102 f8ee ebdb e7df ef06 0b12
000000e0: fb12 f208 ec0a 0310 0b05 f005 e50e 021b
000000f0: 07fa fb09 ea0d 1618 4efd 7f10 13fb f7f3
