keypoint_classifier.tflite (tflite, 6640 bytes, 6 tensors)

arith.constant f4 [7, 16]
0	0x3f05da2b	0.5228602
1	0x3d619884	0.05507709
2	0x3f0779b6	0.5292009
3	0x3ebb96e3	0.36638555
4	0xbed2e67a	-0.41191465
5	0xbbbb4940	-0.005715519
6	0xbf1b53d5	-0.6067479
7	0x3f038ecd	0.5138977
8	0xbf0a8e4b	-0.5412337
9	0x3eb208eb	0.3477243
10	0x3f06a440	0.52594376
11	0xbe923e54	-0.28563178
12	0x3dec7f9f	0.11547779
13	0x3f29ceb4	0.6633103
14	0xbe041aff	-0.12900923
15	0xbe8b6e44	-0.27232563
16	0xbf66bea7	-0.9013466
17	0x3d7bf35d	0.061511386
18	0x3f1a28ec	0.6021869
19	0xbe0558be	-0.13022134
20	0xbf280e4e	-0.6564683
21	0xbf164c6c	-0.5871036
22	0x3f1a8f80	0.60375214
23	0xbed9d3a0	-0.4254427
24	0x3f4a391c	0.7899339
25	0x3f2473df	0.64239305
26	0xbf7b9c99	-0.98285824
27	0x3ec56964	0.3855697
28	0xbf3d6e59	-0.739965
29	0xbf033ad7	-0.5126166
30	0x3f106104	0.56398034
31	0x3f0b9db2	0.545375
32	0x3f01e87b	0.5074536
33	0x3f531a99	0.8246246
34	0xbe58bf5a	-0.21166745
35	0xbf01cce5	-0.5070327
36	0x3f496391	0.7866755
37	0x3ed812db	0.42201886
38	0xbe9db5c4	-0.3080274
39	0x3e0a0434	0.13478166
40	0xbeac705e	-0.3367948
41	0xbf451fcf	-0.7700166
42	0xbe674bdc	-0.22587532
43	0x3efd4129	0.49463776
44	0x3df848a2	0.121232286
45	0xbf27bd94	-0.6552365
46	0xbe39825c	-0.18116134
47	0x3e3f4053	0.18676881
48	0xbd652532	-0.055943675
49	0xbf22551c	-0.63411117
50	0x3dac130e	0.08402072
51	0xbf97f07f	-1.1870269
52	0xbea65b46	-0.3249151
53	0xbc6a513d	-0.014301595
54	0xbe792621	-0.24330951
55	0xbee3eb0a	-0.44515258
56	0xbfbd4ebb	-1.4789652
57	0xbe97dfec	-0.29663026
58	0xbdf568e3	-0.11982896
59	0xbf229cef	-0.6352071
60	0xbeb6cf4d	-0.35705033
61	0xbef4ab09	-0.4778674
62	0x3d89e523	0.067331575
63	0xbf2b9e5b	-0.67038506
64	0xbdca8ebb	-0.09890505
65	0xbcb9d938	-0.022686586
66	0xbe8b9fbe	-0.2727031
67	0xbf85ceb9	-1.0453712
68	0xbf8af19c	-1.0854983
69	0xbe9ddbeb	-0.30831847
70	0xbef89325	-0.48549762
71	0xbf201c46	-0.6254314
72	0xbf1c0404	-0.6094363
73	0xbece0fec	-0.40246522
74	0x3cecfc8a	0.028929014
75	0x3df2001a	0.118164256
76	0x3ea826df	0.32842156
77	0xbced8556	-0.028994244
78	0xbf47d710	-0.78062534
79	0xbf631aa2	-0.88712513
80	0xbdcc8302	-0.09985925
81	0x3d3f0e95	0.046644766
82	0xbe2498df	-0.1607394
83	0xbf55c714	-0.83506894
84	0xbfa79afb	-1.3094171
85	0xbe39385c	-0.18087906
86	0xbe84b3cc	-0.25918424
87	0xbf1b4a56	-0.606603
88	0xbfde6237	-1.7373723
89	0xbe16a524	-0.14711434
90	0x3d22fc68	0.039791495
91	0xbf325ab2	-0.6966964
92	0xbe7775f3	-0.24166088
93	0xbf33a0a1	-0.70166975
94	0xbf2ca146	-0.67433584
95	0x3d93d9ce	0.07219277
96	0xbf0cd772	-0.55016243
97	0xbf1f6888	-0.6226888
98	0xbf34cf4a	-0.706288
99	0xbf8fc561	-1.123211
100	0xbee2183c	-0.44159114
101	0xbe234284	-0.15943342
102	0xbe1e5587	-0.15462314
103	0xbf0c936f	-0.54912466
104	0xbfac9b8e	-1.3484972
105	0xbf038b39	-0.5138431
106	0xbf13eed6	-0.5778631
107	0xbea5931f	-0.32338807
108	0xbc3ffc34	-0.011717845
109	0xbe7dd155	-0.24786885
110	0xbde698ae	-0.1125959
111	0xbf113f87	-0.5673756

arith.constant1 f4 [16, 32]
0	0x3cc792b1	0.02436194
1	0xbcfca9aa	-0.03084262
2	0x3cc614b8	0.024179801
3	0x3e02e6a7	0.127833
4	0xbe5aa884	-0.21353346
5	0x3ec3c110	0.38233232
6	0xbd76771e	-0.060172193
7	0xbe6067c5	-0.21914585
8	0xbcb2363e	-0.02175438
9	0xbea3530d	-0.318993
10	0x3e8d0cea	0.27548915
11	0x3e9a7e37	0.3017442
12	0x3ea9003e	0.33007997
13	0x3e0db5d9	0.138389
14	0x3e5650aa	0.20929208
15	0x3f06d757	0.5267233
16	0xbebcc031	-0.3686538
17	0xbcd38f49	-0.02582516
18	0x3d864062	0.06555249
19	0x3f2ff913	0.6873943
20	0x3d5c6f78	0.053817242
21	0x3f0cd492	0.55011857
22	0xbdb65bbb	-0.08904215
23	0x3e18b02e	0.14910957
24	0x3daa0a14	0.083027035
25	0x3e6f5ff4	0.23376447
26	0x3f516383	0.8179247
27	0x3f294e85	0.66135436
28	0x3fa236b9	1.267295
29	0x3f28d46a	0.6594912
30	0x3eb2429c	0.34816444
31	0x3eeed6ee	0.46648353
32	0xbdac95da	-0.084270194
33	0x3f03c4d4	0.5147221
34	0xbf3d4411	-0.73931986
35	0xbf1d277c	-0.61388373
36	0xbcc8af52	-0.024497662
37	0xbe287225	-0.16449793
38	0xbf3b3010	-0.7312021
39	0x3f09f5d1	0.5389071
40	0xbe2e19c3	-0.17002015
41	0x3f090d32	0.5353576
42	0x3eab5f74	0.33471262
43	0x3e8fb28e	0.28065914
44	0x3e4f96f8	0.20272434
45	0x3edb082d	0.42779675
46	0xbc21c15d	-0.009872762
47	0x3ef7aa1e	0.48371977
48	0x3ee7e5c1	0.45292476
49	0x3eb868e0	0.36017513
50	0xbe8f9fd4	-0.28051627
51	0x3e653762	0.22384408
52	0xbf03f10d	-0.5153969
53	0x3d95697e	0.07295512
54	0x3e4f2bd7	0.20231567
55	0xbe6862bf	-0.22693919
56	0x3e61a892	0.2203696
57	0x3dc42e07	0.095790915
58	0x3efa4614	0.4888159
59	0x3eb0837c	0.34475315
60	0xbdbc40fd	-0.09192083
61	0x3e7511ef	0.23932622
62	0x3ecd5b41	0.40108684
63	0x3ec4b3a6	0.3841831
64	0x3e6fca17	0.23416935
65	0xbe8cee96	-0.27525777
66	0x3ebe80b1	0.3720756
67	0x3f07e673	0.5308601
68	0xbee6ecdd	-0.45102587
69	0x3c9eaaa3	0.019368475
70	0x3f60e8a0	0.8785496
71	0x3ebe9520	0.37223148
72	0x3c1621ab	0.0091633005
73	0xbf270162	-0.65236485
74	0x3ee03711	0.43792012
75	0xbf1b6380	-0.606987
76	0x3e3f349e	0.18672416
77	0x3dee8670	0.11646736
78	0xbe475d33	-0.19469146
79	0x3e1a818e	0.15088484
80	0xbdf9ce90	-0.12197602
81	0xbec1f278	-0.378803
82	0x3f316385	0.6929248
83	0x3e1ebb36	0.15501103
84	0x3f039a4e	0.51407325
85	0xbeac032d	-0.33596173
86	0x3ec4fcfc	0.38474262
87	0xbd4936b4	-0.049124435
88	0x3df463bd	0.11933086
89	0x3d6fbed4	0.058531597
90	0x3d4cfca9	0.050045643
91	0xbf12a971	-0.572898
92	0xbe687d2e	-0.22704002
93	0xbe136d0c	-0.14397067
94	0xbd7a044e	-0.06103926
95	0xbebfe1de	-0.3747701
96	0x3ea95266	0.33070678
97	0xbdf32346	-0.11871962
98	0x3ed279ce	0.41108555
99	0x3ed4ca9a	0.41560823
100	0xbf1dfad8	-0.6171088
101	0x3f104634	0.5635712
102	0x3ebb7eaf	0.3662009
103	0x3e65de53	0.22448091
104	0x3e66a21c	0.22522777
105	0xbf3e6759	-0.74376446
106	0x3ec06b76	0.37581986
107	0xbf012c62	-0.5045835
108	0x3e81e758	0.25371814
109	0x3e8f2091	0.27954534
110	0x3ce6ceac	0.02817472
111	0x3e4bb294	0.19892341
112	0xbe2771f2	-0.1635206
113	0xbf1606d8	-0.5860419
114	0x3ecad50c	0.39615667
115	0xbea67dc6	-0.32517833
116	0x3e94a099	0.29028776
117	0xbcce72e8	-0.025201276
118	0x3e05f3c1	0.13081266
119	0x3e812f1b	0.2523125
120	0x3d1c9743	0.038230192
121	0xbe03743a	-0.12837306
122	0x3ed5827b	0.4170111
123	0xbedab6a0	-0.42717457
124	0x3f5bb031	0.8581572
125	0x3eb0483b	0.34430107
126	0x3ccdcb77	0.025121434
127	0x3cd4aca4	0.025961228
128	0xbf333b75	-0.700126
129	0x3eeafadb	0.45894513
130	0xbf3f95e1	-0.7483807
131	0xbf1987f7	-0.5997309
132	0xbda85941	-0.08220149
133	0xbe019f98	-0.12658536
134	0xbf5a8ce1	-0.85371214
135	0xbdb519be	-0.088428006
136	0xbe6babdc	-0.23014778
137	0xbd2e8872	-0.042610593
138	0xbe3691b8	-0.17829025
139	0x3e0eb80a	0.13937393
140	0x3e96bdc9	0.2944167
141	0x3e9938f5	0.29926267
142	0x3ed42aac	0.41438806
143	0x3dfdadfe	0.12386702
144	0xbdaf80c7	-0.08569484
145	0x3e5e2d98	0.2169708
146	0xbd3054ab	-0.043049496
147	0x3e86b5c4	0.2631055
148	0xbf043ff0	-0.5166006
149	0x3e9ca10b	0.30591616
150	0x3ec19a88	0.3781321
151	0xbea9cc20	-0.33163548
152	0x3e5af0ff	0.21380995
153	0xbc0cd707	-0.008596188
154	0x3e49d7d9	0.19711246
155	0x3e8ac3c5	0.27102485
156	0x3f148093	0.5800869
157	0x3ef4d60e	0.4781956
158	0x3e288862	0.16458276
159	0x3eff5373	0.49868354
160	0x3e60a1e7	0.21936761
161	0x3e4d2177	0.20032297
162	0xbd83e6f6	-0.06440537
163	0x3c54ee56	0.012996277
164	0xbd92c129	-0.071657486
165	0xbeac592a	-0.33661777
166	0xbd70f7f7	-0.058830228
167	0x3e9f52cf	0.31117865
168	0xbdd07a19	-0.10179538
169	0x3e8a91da	0.270644
170	0xbddc2928	-0.107500374
171	0xbcc4c95b	-0.024021795
172	0x3e6778dc	0.22604698
173	0x3e4a5bae	0.19761536
174	0xbdfcd511	-0.12345327
175	0x3e05699d	0.1302857
176	0x3f217b66	0.63078916
177	0x3e74a3b2	0.2389057
178	0x3e21d537	0.15803991
179	0x3d583493	0.052784514
180	0x3c62bc62	0.013838859
181	0x3e926215	0.28590456
182	0xbf4fc71b	-0.81163186
183	0xbe06f2a9	-0.13178505
184	0x3d72e228	0.05929771
185	0x3dbfe5dd	0.09370015
186	0x3e2831f1	0.16425301
187	0x3e26c7f0	0.16287208
188	0x3eacff5f	0.33788583
189	0x3e5ae6f9	0.21377172
190	0x3e276b0f	0.16349433
191	0x3ebb5d1d	0.36594477
192	0x3e9cf15b	0.3065289
193	0x3d553160	0.05204904
194	0x3c691c74	0.014227975
195	0x3e9cbb1d	0.30611506
196	0xbf02ca7e	-0.5109023
197	0xbf7275dc	-0.9471109
198	0x3e684cda	0.22685567
199	0x3aeba746	0.0017978929
200	0xbf5d70fe	-0.8650054
201	0xbf3760ea	-0.71632254
202	0x3e6d0afa	0.23148718
203	0xbe6cf0e5	-0.23138769
204	0xbdd6f52a	-0.1049598
205	0x3e94aebf	0.2903957
206	0xbef19807	-0.471863
207	0xbf49209b	-0.78565377
208	0x3eb9758c	0.36222494
209	0x3e6c520c	0.23078173
210	0x3ea3e45f	0.3201017
211	0x3e749d04	0.23888022
212	0xbd61a707	-0.05509093
213	0xbf98ae80	-1.1928253
214	0x3e04172c	0.12899464
215	0x3e83b61f	0.25724885
216	0x3e0059da	0.12534276
217	0xbdac347f	-0.0840845
218	0xbf82343f	-1.0172194
219	0xbe91d6ab	-0.2848409
220	0xbf5a004a	-0.8515669
221	0xbf097768	-0.53697824
222	0xbe4c2906	-0.19937524
223	0x3e7beea3	0.24602751
224	0x3de9bf91	0.114134915
225	0xbca0bd77	-0.019621594
226	0xbc9088b2	-0.017643306
227	0xbdbb50cc	-0.0914627
228	0xbe6f7de4	-0.23387867
229	0x3f3c955a	0.7366539
230	0x3e329faa	0.1744372
231	0x3e91e6d3	0.28496417
232	0x3dde992f	0.10869061
233	0xbe7a893f	-0.24466418
234	0x3eaf0389	0.34182385
235	0xbe194136	-0.14966282
236	0xbdcd17b4	-0.10014287
237	0x3ea7024d	0.32618943
238	0x3f1466fc	0.5796964
239	0x3e7afdfb	0.24510948
240	0x3edc13f5	0.42983976
241	0x3c23b756	0.009992441
242	0x3e93cc1e	0.28866667
243	0xbe0b5d79	-0.13609876
244	0x3ce52986	0.027973901
245	0x3ecdb69a	0.40178376
246	0x3ee223da	0.44167978
247	0x3ec63833	0.38714752
248	0x3e9afc59	0.3027065
249	0x3efdc46f	0.4956393
250	0x3f3d10ef	0.73853964
251	0x3ebfe1d2	0.37476975
252	0x3f5c0129	0.8593927
253	0x3f24e11e	0.64406
254	0x3eb06730	0.34453726
255	0x3f01aede	0.5065745

arith.constant2 f4 [7]
0	0x3c72ed59	0.014827096
1	0x3e9a1049	0.3009055
2	0x3dd8e0e7	0.10589772
3	0xbe4565f6	-0.19277176
4	0xbe721d9a	-0.23644105
5	0xbe5581a2	-0.20850232
6	0xbe32914e	-0.17438242

sequential_1/dense_1_2/BiasAdd/ReadVariableOp f4 [16]
0	0xbe21b7dd	-0.15792795
1	0x3e586f60	0.21136236
2	0x3ec8fdfe	0.3925628
3	0x3ebc60c3	0.36792573
4	0xbe1dcbff	-0.1540985
5	0x3e999959	0.29999807
6	0x3ee0fb96	0.43941945
7	0x3d9169e5	0.07100276
8	0x3f3617ed	0.7113026
9	0x3ee46a98	0.44612575
10	0xbe919f61	-0.2844191
11	0x3ef3dd0d	0.47629586
12	0x3dcd2186	0.1001616
13	0xbe2e6159	-0.17029323
14	0x3ef8d40c	0.4859928
15	0x3ef3fd0a	0.4765399

sequential_1/dense_1/BiasAdd/ReadVariableOp f4 [32]
0	0x3e0bae94	0.13640815
1	0xbf23e7d4	-0.64025617
2	0xbdb1ca1a	-0.08681126
3	0xbd2d290c	-0.042275473
4	0xbe8c4eff	-0.2740402
5	0xbe5083fc	-0.20362848
6	0xbd3709bd	-0.04468702
7	0x3d91c5bd	0.07117794
8	0xbe9d8ea0	-0.30772877
9	0x3e23e753	0.16006212
10	0x3e911778	0.28338218
11	0xbf042731	-0.516223
12	0xbe273b7e	-0.16331288
13	0xbe7c677c	-0.24648851
14	0xbf2b707e	-0.66968524
15	0xbe93ebeb	-0.2889093
16	0xbe21f9ed	-0.15817995
17	0xbdaac2a7	-0.08337908
18	0x3ea9f0b8	0.33191466
19	0xbec25b73	-0.37960395
20	0x3e00c9f9	0.12577046
21	0xbf335929	-0.7005792
22	0xbdca528e	-0.09879027
23	0x3e53413e	0.20630357
24	0xbdf6e300	-0.120550156
25	0xbf2cc9e0	-0.67495537
26	0xbeac2325	-0.33620563
27	0xbf3ad525	-0.7298148
28	0xbebac3be	-0.36477464
29	0xbf0930ca	-0.5359007
30	0xbef7337e	-0.48281473
31	0xbf2c33b3	-0.67266387

sequential_1/dense_1/MatMul i1 [32, 42]
0	0x1a	26
1	0x42	66
2	0xe9	-23
3	0x5b	91
4	0xfe	-2
5	0x3a	58
6	0xf9	-7
7	0x17	23
8	0xe0	-32
9	0x17	23
10	0x14	20
11	0x17	23
12	0x13	19
13	0x1d	29
14	0x00	0
15	0x16	22
16	0x14	20
17	0xbd	-67
18	0x00	0
19	0x1c	28
20	0xf0	-16
21	0x0d	13
22	0x04	4
23	0x81	-127
24	0xfe	-2
25	0xa6	-90
26	0xf5	-11
27	0x14	20
28	0xfd	-3
29	0x16	22
30	0xdc	-36
31	0x2b	43
32	0xf6	-10
33	0xee	-18
34	0x17	23
35	0x12	18
36	0x08	8
37	0x18	24
38	0xf4	-12
39	0x22	34
40	0xdc	-36
41	0x20	32
42	0xd0	-48
43	0xec	-20
44	0x73	115
45	0x31	49
46	0xec	-20
47	0xd9	-39
48	0x6b	107
49	0x9f	-97
50	0x43	67
51	0xaf	-81
52	0x11	17
53	0xc0	-64
54	0xef	-17
55	0x16	22
56	0xf6	-10
57	0x2a	42
58	0xe1	-31
59	0x1c	28
60	0x3d	61
61	0xd8	-40
62	0xe1	-31
63	0x11	17
64	0xf1	-15
65	0x1d	29
66	0xf1	-15
67	0x12	18
68	0xcc	-52
69	0xb9	-71
70	0xe6	-26
71	0xef	-17
72	0x0c	12
73	0x0f	15
74	0x26	38
75	0x15	21
76	0xd3	-45
77	0x81	-127
78	0x08	8
79	0xcf	-49
80	0xfe	-2
81	0x03	3
82	0x0d	13
83	0x0c	12
84	0x11	17
85	0xe5	-27
86	0xf8	-8
87	0x1a	26
88	0xfd	-3
89	0x0b	11
90	0xfb	-5
91	0x05	5
92	0xf0	-16
93	0x03	3
94	0x08	8
95	0x0c	12
96	0x01	1
97	0x07	7
98	0xfd	-3
99	0x06	6
100	0xfd	-3
101	0x0d	13
102	0x05	5
103	0x07	7
104	0x08	8
105	0x05	5
106	0x05	5
107	0x04	4
108	0xfb	-5
109	0x81	-127
110	0xfc	-4
111	0x0a	10
112	0x03	3
113	0x09	9
114	0x01	1
115	0x08	8
116	0xf6	-10
117	0x06	6
118	0xf6	-10
119	0x0a	10
120	0x0a	10
121	0x07	7
122	0x04	4
123	0x0c	12
124	0x05	5
125	0x0e	14
126	0xe3	-29
127	0xe3	-29
128	0xfa	-6
129	0x3f	63
130	0x01	1
131	0x1a	26
132	0xff	-1
133	0x12	18
134	0xf6	-10
135	0x07	7
136	0x02	2
137	0x0f	15
138	0x03	3
139	0x06	6
140	0x0a	10
141	0x06	6
142	0x01	1
143	0x81	-127
144	0xf8	-8
145	0x0b	11
146	0x0a	10
147	0x06	6
148	0xf5	-11
149	0x08	8
150	0xf7	-9
151	0x08	8
152	0x05	5
153	0x08	8
154	0x0a	10
155	0x07	7
156	0xfc	-4
157	0x00	0
158	0xfd	-3
159	0x03	3
160	0xff	-1
161	0x09	9
162	0xfb	-5
163	0x08	8
164	0x07	7
165	0x07	7
166	0x05	5
167	0x06	6
168	0x1a	26
169	0x1b	27
170	0x81	-127
171	0x46	70
172	0xe2	-30
173	0x4b	75
174	0xf8	-8
175	0x3f	63
176	0xfa	-6
177	0x35	53
178	0xfb	-5
179	0x53	83
180	0xe9	-23
181	0x63	99
182	0xfb	-5
183	0x6a	106
184	0xf3	-13
185	0x69	105
186	0xd8	-40
187	0x5c	92
188	0xe2	-30
189	0x24	36
190	0x02	2
191	0x3d	61
192	0x0e	14
193	0x1f	31
194	0xd6	-42
195	0x3f	63
196	0xf3	-13
197	0xfc	-4
198	0xe8	-24
199	0x33	51
200	0xf1	-15
201	0xfb	-5
202	0xf9	-7
203	0xd9	-39
204	0x0a	10
205	0x19	25
206	0xff	-1
207	0x30	48
208	0xec	-20
209	0xec	-20
210	0x07	7
211	0xf0	-16
212	0x01	1
213	0xef	-17
214	0x06	6
215	0xfa	-6
216	0x0b	11
217	0xfa	-6
218	0x11	17
219	0xfa	-6
220	0xf7	-9
221	0x01	1
222	0xf9	-7
223	0x04	4
224	0xfc	-4
225	0x04	4
226	0xf9	-7
227	0x03	3
228	0xed	-19
229	0x06	6
230	0x00	0
231	0x06	6
232	0xfb	-5
233	0x05	5
234	0x09	9
235	0x05	5
236	0xfb	-5
237	0x08	8
238	0x0a	10
239	0x09	9
240	0x02	2
241	0x12	18
242	0xef	-17
243	0x81	-127
244	0x07	7
245	0x12	18
246	0x03	3
247	0x0d	13
248	0xf2	-14
249	0x15	21
250	0xfc	-4
251	0x0d	13
252	0xed	-19
253	0x17	23
254	0xfd	-3
255	0xf8	-8
