model/keypoint_classifier/keypoint_classifier.tflite (tflite, 6560 bytes, 6 tensors)

arith.constant f4 [4, 10]
00000000: 14e5 933f f5a8 d5be 6ecc c43d 4439 8f3d
00000010: 3723 4d3f 200b ed3e 2369 81be 407c 6bbf
00000020: 44d4 113d 4403 443e 4fd6 c6be 98bf 91bf
00000030: bb01 6d3f 322a a53f d318 1dbf ccba 18bf
00000040: 0985 233e f534 d53e e5ce 71bf 4678 623e
00000050: 15e7 53be b6a1 823f 3f44 da3e 1548 0cbf
00000060: 77e1 2fbf db7c 83bf 9510 39bf 39e0 2a3f
00000070: e68e 0f3e 9914 7bbf 1bf0 a5bf b771 90bf
00000080: 1327 fdbf a93f 063f 5783 47bf 454a 553f
00000090: bcd7 633f bf57 8dbf e3a3 4a3f 7f07 343f
1.1554284 -0.41730466 0.09609304 0.069933444 0.8013186 0.4629755 -0.25275525 -0.91986465
0.035602823 0.1914187 -0.3883538 -1.1386595 0.92580765 1.2903502 -0.61366004 -0.5966003
0.15968718 0.41641966 -0.9445632 0.22116193 -0.2069362 1.02056 0.42630193 -0.5479749
-0.6870341 -1.0272478 -0.7229093 0.66748387 0.14019355 -0.98078305 -1.2963899 -1.1284703
-1.977755 0.5244089 -0.77934784 0.8331645 0.8900106 -1.1042403 0.7915632 0.7032394

arith.constant1 f4 [10, 20]
00000000: 7c5f 773d 3dad dc3e 630b 2dbe 9523 7e3f
00000010: 0045 9b3f d4f9 b13c f9f3 57be ad8d ca3d
00000020: 97d8 2a3e 4a78 96be 2fa5 28be 350b eebe
00000030: 9987 4b3f d3d3 a43e 54ce 3e3f f812 2b3e
00000040: 086f df3e 0b07 d4be 4b97 463f e9c1 da3e
00000050: 0da6 31bf 37d8 643e cd84 7a3c 103c 31bf
00000060: 0b2e 793f 2e75 40bf 7179 79bf 05fb bcbf
00000070: d5e8 88bf 708c a23e 4e1b afbe 02d7 0cbf
00000080: 7213 c13e 8d7f 3ebf a7d6 eebe 57eb 37bf
00000090: 4f69 f03d 8e38 dc3d e48b 07bf 9f62 ddbd
000000a0: 0e94 a53e 58a3 843e 6c95 613f 6080 9c3e
000000b0: 429b 813f 7678 f7bc 7267 b33d 8d80 f1bc
000000c0: 69e0 bdbc 2585 183f 4040 a03f 89b2 883f
000000d0: aabf 773f 1ebf b63e 25fc 083f d67c 81bc
000000e0: f853 023e 51fb 223e 82c9 503d df88 493f
000000f0: ec42 75be a97f a0bd 3f18 3a3e 5b56 2d3f
00000100: b459 15bf 6ad9 c73e 38a6 d0bd 4bba 3c3e
00000110: 84f8 8a3e ad58 4d3f 75c0 883f 5ba6 673f
00000120: c029 eb3d fd6a fe3e 808c 5a3f d3e1 403f
00000130: b570 89be ec47 a83e 2a5b 6e3e 34a4 023e
00000140: 0adb f83e ebe2 0b3f 012c 53bd b699 d83e
00000150: fe76 a53e 9c73 dd3d 0aca 093f f26f 95be
00000160: 88e1 fbbd afc9 41be 437b c9be cd8e 85be
00000170: 75c3 743e 2115 2c3f 844b 3b3f 07e2 6b3d
00000180: 1550 243f 265f b43b c577 443f af61 10bd
00000190: eb47 073f 9ac5 c93e 975b 22be 16e2 b4be
000001a0: b2b8 ddbd 3cbd 9f3e b8a5 6d3e 54b2 293f
000001b0: 59d6 393f 48ce f8be 623e 09bf 6fc7 383e
000001c0: 787d 5b3c 123f f4be de8b fe3e 183e 1d3f
000001d0: 1ecb 1e3e 46d9 c0ba f12b 82be a107 403e
000001e0: 1cd2 eb3d 1d0c 5ebe 45e0 893d 4733 3dbe
000001f0: b17c 8cbe 4b1f 153e 1cc7 d53e 8db3 27bf
00000200: a9f7 b83d cee2 383f ea22 46bf 1984 ecbe
00000210: be50 8f3b 9c6d e0be 22ee 3cbe 6c11 3b3d
00000220: 91ac 19bf b8ef d7bd 2a32 163e 70fc 1bbf
00000230: 1ffb 30bf 8984 c8be c83b 453f 281f c1be
00000240: 45df f33d fe15 82be ca23 fdbe 10e9 80be
00000250: 5fc5 8fbe 8b9c 223f 87d5 7c3e 2561 493f
00000260: ec27 0b3f 2d25 36be 61af 503e 8deb 523b
00000270: 5ab4 07bf 420b 483f 96e3 e4be 7812 7b3d
00000280: 9690 22bd 8493 a43d 25e6 0dbd 9a96 8c3a
00000290: dc5b d3bd b2b2 0c3f cec0 233d b278 36bf
000002a0: f50a 5abf 234d 38bd 821f 9fbe f7c0 43be
000002b0: 6d4e a93e 700c 0ebf 1b69 c93d 01a3 cebc
000002c0: 9015 e43c f12d b13e 1a9b 6c3e a88f f6bd
000002d0: 4fc5 ddbe bca4 e6be 33ae a33e 3bb2 ef3e
000002e0: bce1 20be 3563 153f b817 b43e 4b71 49be
000002f0: 91ea 24bf 85fc 683e 3f09 b3be 5093 08bf
00000300: 362a fb3c cf9e e03c 0db7 143f 63e3 303f
00000310: 8ae9 3b3e c283 14bd e19d 383f fd02 99bf
0.060393795 0.4310092 -0.16898875 0.99273044 1.2130432 0.021725573 -0.21089162 0.09890304
0.16684185 -0.29388648 -0.16469263 -0.46492925 0.7950378 0.3219286 0.7453358 0.16706455
0.43639398 -0.41411623 0.77574605 0.42726067 -0.69394 0.22348104 0.015290451 -0.69232273
0.9733588 -0.751788 -0.9745093 -1.4764105 -1.0696055 0.3174777 -0.3420052 -0.55015576
0.37710148 -0.7441338 -0.46648142 -0.71843475 0.11738836 0.107529745 -0.5294783 -0.10809826
0.3233952 0.2590587 0.88118625 0.30566692 1.0125506 -0.030208807 0.08759965 -0.029480243
-0.023178296 0.5957816 1.2519608 1.0679485 0.9677683 0.35692686 0.5350974 -0.015806597
0.12727344 0.15916182 0.050973423 0.78724474 -0.2395131 -0.07836849 0.18173312 0.67709893
-0.5834 0.3903306 -0.10187954 0.1843044 0.27142727 0.80213434 1.0683733 0.90488213
0.114825726 0.49691 0.85370636 0.7534458 -0.268438 0.32867372 0.23276964 0.12757951
0.48604614 0.54643124 -0.051555637 0.42304772 0.32317346 0.10813066 0.5382391 -0.2918697
-0.12298876 -0.18924592 -0.39351854 -0.2608551 0.23902686 0.6721974 0.731621 0.057588603
0.64184695 0.0055045066 0.76745254 -0.03524941 0.52844113 0.3940857 -0.15855251 -0.3532874
-0.108262435 0.31199062 0.23207748 0.6628773 0.72592694 -0.4859488 -0.53610814 0.18044828
0.013396613 -0.4770437 0.49716085 0.6142287 0.1550717 -0.001471319 -0.2542415 0.1875291
0.115146846 -0.21684308 0.06732229 -0.18476592 -0.27438882 0.14562719 0.4175347 -0.6550835
0.090316124 0.72221076 -0.77397025 -0.46194533 0.004373639 -0.43833625 -0.18450215 0.04567091
-0.6002894 -0.105437696 0.14667574 -0.60932064 -0.6913318 -0.39163616 0.77044344 -0.37719083
0.1190782 -0.25407404 -0.49441367 -0.25177813 -0.2808027 0.63520116 0.24690829 0.78663856
0.5435779 -0.17787619 0.20379402 0.0032183856 -0.5300957 0.7814218 -0.44704884 0.06129691
-0.03968867 0.08035949 -0.03464331 0.0010726035 -0.10320255 0.5496017 0.039978795 -0.71277916
-0.8517297 -0.04499544 -0.31078726 -0.19116579 0.33067647 -0.5548773 0.098345004 -0.02522421
0.027842313 0.34605363 0.23106042 -0.12039119 -0.43314597 -0.45047557 0.3196884 0.46815667
-0.15711111 0.583545 0.35174346 -0.19672124 -0.6442042 0.22752579 -0.34967992 -0.5334978
0.030659776 0.027419476 0.58091813 0.69096965 0.18350807 -0.036258467 0.72115904 -1.1954037

arith.constant2 f4 [4]
00000000: b1a4 87be 9fec 8fbc 6151 c83e f4a4 04ba
-0.26492837 -0.017568884 0.39124587 -0.00050599803

sequential_1/dense_1_2/BiasAdd/ReadVariableOp f4 [10]
00000000: cac4 263d be20 513f 5c0d 903e 7408 c93c
00000010: 2947 f3bc 2891 7b3d 43fa bd3c 005e 3f3f
00000020: 3748 8dbe 744f 4e3e
0.040715016 0.81690586 0.28135192 0.024540164 -0.029697018 0.06141773 0.023190623 0.7475281
-0.27594158 0.20147496

sequential_1/dense_1/BiasAdd/ReadVariableOp f4 [20]
00000000: 96f7 c8be 28d7 ccbe a4a0 0cbf c2d9 dfbe
00000010: cb3f 64be 6bc4 2bbf 4968 9ebe 06ad f7be
00000020: 4d32 c1be b022 2cbf 896b 53bf 6538 69bf
00000030: 6032 603e 69a9 e8be 7ea1 0ebf f826 5fbf
00000040: 826c e8be e1fe 0ebf f3db 12bf b672 1ebf
-0.39251393 -0.400079 -0.5493262 -0.43720824 -0.2228996 -0.67096585 -0.30938938 -0.48374194
-0.3773369 -0.6724043 -0.8258596 -0.91101676 0.21894217 -0.4544175 -0.5571517 -0.87168837
-0.45395285 -0.55857664 -0.57366866 -0.61893785

sequential_1/dense_1/MatMul f4 [20, 42]
00000000: 3516 46be 2c40 c83d 1051 e73d 31c2 a33e
00000010: 1888 91bd cb86 4bbd 7cdd 5bbe 23a0 a2bd
00000020: 36aa 13bf 1084 a5bd 8754 db3b 9c8f 713e
00000030: 92fc 6c3d 2bd6 f83d d5ec 673d ab26 9cbd
00000040: f458 c0bc 9929 eabd b433 76bc d65c 883e
00000050: 5f64 dd3c cb76 c63d 945f 103e ac0c 87bc
00000060: 4192 0f3f 1a0b 1fbd cc8d 57bd 090f 763e
00000070: 580f ad3c 9fd8 133d a568 5c3e 1902 403d
00000080: 6fb6 df3e c03c 05bf cc22 33be 99b5 7f3e
00000090: 71e4 55bd ea8e 943d d0c0 ed3d d5ad 203d
000000a0: 3ea7 173f 38b3 a9bd ec1d 2c3e fe60 e6bd
000000b0: 943c 16be 9b51 553c 9b68 adbc a525 12be
000000c0: 9cd7 fcbc 54b3 a3be 59ce ecbd c19b 86be
000000d0: 0104 87bd 1f6c 373e c01b dabd fb33 e4bd
000000e0: c6a0 c2bb 3d31 37bd 68ad 4fbe f17e 103d
000000f0: e617 babd 8087 393e 81b8 cc3b e6f6 58be
00000100: 0c3c 183d 3c7d 443e 0a55 8c3e 1c65 2d3f
00000110: 6513 22be 5bf0 263d b52e 713c 00b5 28be
00000120: 2529 d33d e15a bd3e ad3d 38bd 3dd0 333f
00000130: 9d46 08be 9265 13be 8cf8 24b8 fb19 15be
00000140: 1e4d a7bd 41c0 943e f449 b33e 5a3b 013f
00000150: 286e a13d c289 8b3e 98b5 463e ab89 0fbe
00000160: 8592 9e3e a6df 72be d255 473e ca68 7cbe
00000170: 4d1a 1d3d 6cd1 6bbe eb84 cc3e f25b 983d
00000180: 07cf 0d3e 93c4 bcbb ff7a b8bd 782b a33d
00000190: 0ffb 7dbe 8068 ab3d ee58 303f 7af6 3bbc
000001a0: 2afd 283e 56a0 05bd 64c1 69be 6d7b dc3d
000001b0: 2bc0 61be c2bf ea3d 9d66 113f 85a7 d7be
000001c0: 9c4d afbb 3f9c 593d 5c1e 39be bdfc f33d
000001d0: d51f 69be c4c0 043e 0fd8 ec3e c577 f0be
000001e0: 7748 573e 5f5b 33be 0538 71bc e743 b63c
000001f0: c43f 37bd d7e5 a43d 3496 783e 1cb0 ab3d
00000200: 85fc 963e e80d af3c e493 373e b924 72bd
00000210: c930 ad3e b1ce 87be d6e5 053f 78dd ddbe
00000220: 31b9 0abe c7d7 30bd cade 0e3c d854 b83c
00000230: 6665 65bb 68c4 853d 4b97 e8bc 903e 4f3d
00000240: 4722 4fbd 6cc6 bfbd 72f0 363c 272c 08be
00000250: 5045 10be 9158 a7bd e729 acbe 5929 323e
00000260: afd5 5b3d 01fa abbd c3df de3d 059c 1abe
00000270: 4302 92be 6d0e ab3d b5f0 cabe b14b 033f
00000280: ebdf 613e ec4c ebbd a020 333d 870b 87bd
00000290: 11ce 0cbe adcc 903e e93d 9bbe 71b2 2e3f
000002a0: f04e d8bd 8393 9ebe ce9d 913d efb6 ee3e
000002b0: d261 463c b425 543e 2ea6 e53c 1840 383e
000002c0: 7472 87bc ee41 2f3e 82a5 893c f072 173e
000002d0: b57c eb3c afc2 063e 9a4d ec3c 02f2 0e3e
000002e0: 9207 233d 6070 b4bf 7aa3 663c 14cd 083e
000002f0: 7ff3 ccbb 4134 e73d ddbf debc c39e 993d
00000300: 4936 d4bd dafa 1cbc 15ac 9dbb 7e9e dc3d
00000310: ae93 01bd 4863 b73d 7eaf c1bd 852a c33c
00000320: 4db7 3fbd dd24 78bd 37ed a43d f0fa 023e
00000330: b75e 31bd 74a2 c83d 8c28 3abb e05d bc3c
00000340: cb83 a0bc 2e5a 5dbd 4f6e 85be 8bb9 88be
00000350: 1df2 6dbe b085 afbe 9ad2 24bc 75e2 15be
00000360: 8089 69bd 58fa b13c 3dc8 3fbb 6e17 a1bd
00000370: 1e4f d03e b62d cebc 6a5b 123d d8c8 553c
00000380: 6e7a efbd 5c70 133e 6398 dcbd c4da ff3d
00000390: 7bcf f23d 9967 e1bc 3eef 483d e21a 04bd
000003a0: c5db 2f3d 075b 09be aa74 16bd ad1d 6dbe
000003b0: 4c55 a83d d23c 88bd 8300 e03d e07e 4bbd
000003c0: 0cb5 893c cafb 93be c99e 47be 9ea4 80be
000003d0: ea44 5ebd cd78 d6bd 0cc1 2abc f7d0 efbd
000003e0: 62c8 003e acb2 f1be 3f87 49bd 8469 afbe
000003f0: 6226 46be 3844 9a3e a01e 073e 1d46 993e
-0.19344409 0.09777865 0.11294758 0.31984094 -0.07106036 -0.049689095 -0.21471208 -0.079407
-0.57681596 -0.080818295 0.006693426 0.23589939 0.057858057 0.12150224 0.056622345 -0.07624563
-0.023479916 -0.114337154 -0.015026975 0.26633328 0.0270254 0.09690627 0.1409896 -0.016485535
0.5608254 -0.038828947 -0.052625462 0.24029173 0.02112548 0.036095258 0.21524294 0.046877
0.43693873 -0.5204582 -0.17493743 0.24971618 -0.05221981 0.07253821 0.11609042 0.03922828
0.59239566 -0.082861364 0.1680829 -0.112489685 -0.14671546 0.013019945 -0.021168044 -0.14272173
-0.03086453 -0.31972754 -0.11562795 -0.26290706 -0.065925606 0.17912339 -0.10649824 -0.11142727
-0.005939576 -0.04472469 -0.20280993 0.03527731 -0.090865895 0.18118095 0.0062475805 -0.21187934
0.03716664 0.19188398 0.2740863 0.67732406 -0.15827711 0.040756565 0.0147206085 -0.16475296
0.10310582 0.36983398 -0.044980694 0.7023962 -0.13308187 -0.14394215 -3.9332124e-05 -0.14560692
-0.08169006 0.29052928 0.3501736 0.5048119 0.07882339 0.27253538 0.1940521 -0.1401736
0.3097116 -0.23718128 0.19466332 -0.24649349 0.03835516 -0.23029107 0.39945158 0.07439412
0.13848506 -0.005760738 -0.09007835 0.079672754 -0.24802803 0.08369541 0.68885696 -0.011472339
0.16502824 -0.03262361 -0.22827679 0.10765729 -0.22045963 0.11462356 0.567972 -0.42119995
-0.005349828 0.053127524 -0.18077987 0.119134404 -0.22766049 0.12964159 0.4625859 -0.46966377
0.21023737 -0.17515324 -0.014722829 0.022249175 -0.044738546 0.08051651 0.24276048 0.083831996
0.29489532 0.021368936 0.1792751 -0.059117053 0.33826283 -0.2652488 0.52303827 -0.4333303
-0.13547207 -0.04317453 0.008720109 0.022501394 -0.0035003065 0.06531602 -0.028392455 0.050596774
-0.0505698 -0.09364018 0.011165725 -0.13298093 -0.1408894 -0.081711896 -0.3362572 0.17398585
0.05367058 -0.08397294 0.10882523 -0.15098579 -0.2851735 0.08352361 -0.3963677 0.5128737
0.22058074 -0.11489281 0.043732285 -0.065939955 -0.13750483 0.28281155 -0.3032067 0.6824103
-0.10561931 -0.30971918 0.07110177 0.46623942 0.012108283 0.20717508 0.028033342 0.179932
-0.016534068 0.17114994 0.016802553 0.14789939 0.028745988 0.13160203 0.028845597 0.13959506
0.03980214 -1.4096794 0.014077062 0.13359481 -0.006254613 0.112892635 -0.027191097 0.075009845
-0.103619166 -0.009581292 -0.0048117735 0.107724175 -0.03163498 0.08954483 -0.094573006 0.023823986
-0.04680567 -0.06058203 0.08053058 0.12791038 -0.043303218 0.097966105 -0.0028405515 0.022993982
-0.019594094 -0.05404108 -0.2606072 -0.26704058 -0.2323689 -0.34281683 -0.010059977 -0.14637168
-0.057015896 0.021725819 -0.0029263638 -0.07865797 0.40685362 -0.025168281 0.03573171 0.013048373
-0.116932735 0.1439833 -0.10771253 0.12492898 0.1185598 -0.02751522 0.049056284 -0.0322522
0.042934198 -0.1341363 -0.036732353 -0.23155852 0.08219394 -0.066522256 0.109375976 -0.049681544
0.016809963 -0.28903037 -0.19494165 -0.25125593 -0.05426494 -0.1047226 -0.0104220025 -0.11709779
0.1257644 -0.47206628 -0.049201246 -0.3426019 -0.1935058 0.30130172 0.13195276 0.29936305
