model/point_history_classifier/point_history_classifier.tflite (tflite, 6448 bytes, 6 tensors)

arith.constant f4 [4, 10]
00000000: 89a3 5ec0 0aa3 7540 bfef bac0 d7b4 17c0
00000010: 7cc6 983f d21b 2abe 164c 36c0 608d 2fc0
00000020: 60e7 8740 2cb6 b9c0 2ae8 00bf e4f9 b0bf
00000030: 97ee 08bf 0916 853f cf7b 3e3f 928f 5ec0
00000040: 9352 eb3f 6a12 833f 5718 36c0 d6c2 583f
00000050: bb04 923f 8ba3 fcbf 30d8 7c3e f83a 663f
00000060: 9459 54c0 d0eb 8f3f aecd 7f3e afe1 833f
00000070: 896b 4cc0 fbd9 10be b742 1c3f eef3 18c0
00000080: eee8 ad3f 8e48 81bf 3303 8d3f 2411 f43e
00000090: e941 5abf 72e2 6dbf f426 dfbf f564 523f
-3.4787314 3.838076 -5.841766 -2.3704126 1.1935573 -0.16612175 -2.848394 -2.7430038
4.246994 -5.803488 -0.50354254 -1.382626 -0.5348906 1.039735 0.74407667 -3.4775128
1.8384575 1.0239995 -2.8452356 0.84672296 1.1407694 -1.9737409 0.24691844 0.8993373
-3.3179674 1.1243839 0.24980804 1.0303248 -3.1940634 -0.14145653 0.610393 -2.3898883
1.358671 -1.0100267 1.1016601 0.47669327 -0.8525682 -0.92923653 -1.7433763 0.821853

arith.constant1 f4 [10, 24]
00000000: f345 ab3f a3b3 39bc a816 263f a2ae 993e
00000010: 7ea3 cc3f 8a61 6c3e 9e63 a03f a0ad 1c3f
00000020: ecea 6a3f 1505 a33e 5d0a 463e 30df de3d
00000030: 45df 233f 8b7a 9f3f abed ad3f 83ec 363f
00000040: ec51 4e3f 223b e73e decd a83f d981 8b3f
00000050: 2356 163f f6ef d43f e281 8f3f 7da2 0d3d
00000060: 55b8 78c0 1e80 e2c0 61bf c6c0 eef1 95c0
00000070: 8d54 68c0 2d56 b2c0 50af 6cc0 3d4e 8cc0
00000080: ff83 9dc0 2d00 b4c0 fbea 9fc0 fbd1 963e
00000090: 35fb a9c0 7cdd bcc0 fbe1 9cc0 e569 9ec0
000000a0: 6c40 e03d 97da c6c0 8f41 e3c0 30e7 cec0
000000b0: c220 c1c0 5856 84c0 efd3 a8c0 4f57 c0c0
000000c0: 04b9 a23f 305a 2e3f 0e74 cb3e f3b6 9d3e
000000d0: 8b1a 743f 7bfb 753e d5ee 503f c595 633f
000000e0: b85e 903f ab75 8e3e b127 103f 48fc 893e
000000f0: a474 a63f 80cf 643f 9a58 c73f c026 ae3f
00000100: 4bab 1bbe 54bb da3c 7797 813f 3e7d 3c3f
00000110: c802 103f 33ce 993f 3789 8a3e 3540 5f3b
00000120: eef4 7a3e 2878 373f 4ee4 453f a609 8dbf
00000130: 8806 a8bf 2fc5 5fbf 74db 16be 8bff e2be
00000140: 048a 8e3c 6774 0b3f bb6c 2d3f f9fc 3f3e
00000150: d6ad cd3e 8070 b9be 7d20 043f a985 123f
00000160: 96fe fbbe e8cd 863d dc1a 08bf 9024 0ebf
00000170: 29d7 8dbf 6f8f 973d 6bca 283e 86ae acbf
00000180: 972b 1fc0 8514 e5bc 51ad 90bf 0854 643e
00000190: 0cbd efbf 62e8 1b3e 4854 aebf 2db7 2e3f
000001a0: 6ed8 3abf 9ae0 b23e f393 853e 1ef7 90be
000001b0: b5ad 58bf de75 c83d 5bbb 0fbf 016a a6be
000001c0: 4089 00bf 0b80 043c 1705 c4be 7f1d 9ebd
000001d0: 4f61 283f 375e bc3c 0d3e 14bf 242a f43e
000001e0: 9bb7 e03e bfe6 0fbf faee 98bf 8065 debe
000001f0: 8a41 2a3f f2ae 2ebf 9a6d c13e f731 95be
00000200: 02fd 023f ae2f a2be 78fb 49bf b224 e0be
00000210: 51b3 2a3f d39d a33e b06b 873f a765 f53e
00000220: 57ac bebe 61d8 2bbf 8acf 0f3e 1d45 0d3e
00000230: 75e9 b2be 7fd8 d43e bdcf 56bf bed0 20bf
00000240: 47cc a1be b0b4 a6bb ea4e 47be e1ee 6d3e
00000250: 9851 e7be b4d6 c9bd fa30 7abe 1ab0 573f
00000260: 2ac9 ccbf 9905 f6bc f5c6 6e3e 5092 52c0
00000270: a7f3 91bf a2ef 2cbd 6de3 9e3d 9013 193e
00000280: 8489 293f ab7e dcbf d9fa 2d3c f80d aebe
00000290: bd12 143f e540 173e 755a e53e 5988 1dbd
000002a0: 6654 c7be 100f 14bd 35c2 9ebd 75ff d63e
000002b0: 3fe1 8ebe 5e52 c23e e936 8cbe 6c67 3d3e
000002c0: 2a0d bd3e 30b4 71be 5cca 4ebe 6b1e d43e
000002d0: c632 603e be1c 293e 9c32 8dbe 0175 36be
000002e0: 9f26 44c0 a42a 803e cdf4 8cbc 7df1 a8bd
000002f0: e0fa 3b3e e961 18be 037c c93e bdc1 153e
00000300: 63ae 82c0 f8ea b0c0 572c b1c0 9927 a6c0
00000310: 957f 9bc0 6f93 c6c0 12fd acc0 6797 84c0
00000320: 094d aec0 26d6 a3c0 0a60 b1c0 0ab9 b6be
00000330: 75fa 98c0 791a fdc0 ae81 77c0 0973 b1c0
00000340: b686 81be b785 b0c0 6e0e c8c0 09bd c5c0
00000350: 20a7 cbc0 4d8c b5c0 a076 e1c0 f606 afc0
00000360: 08bf 26bd 891d 7a3f 9bd8 3b3f 0ddd 923f
00000370: a8cf 35be 6617 463f 78d9 0cba f564 913f
00000380: 967a 533f 978d 9a3f 0682 d33f f67c 4d3f
00000390: 5beb 2b3f 6afc 5a3f 4b2a 3a3f 9810 1a3f
000003a0: 8aba 023f 5375 933f acc5 943e 0489 053f
000003b0: 8ae2 a03e 020b 373f e2fc c8bc 2398 f33e
1.3380722 -0.011334333 0.6487832 0.30016047 1.5987394 0.23084083 1.2530401 0.6120243
0.9176471 0.31839815 0.19339891 0.108824134 0.6401256 1.2459272 1.3588156 0.7145464
0.8059375 0.45162302 1.3187826 1.0899001 0.58725184 1.663573 1.1211512 0.03457879
-3.8862507 -7.0781393 -6.2108617 -4.6857824 -3.6301606 -5.5730195 -3.6982002 -4.3845506
-4.922363 -5.6250215 -4.997434 0.29457077 -5.311915 -5.9020367 -4.9025855 -4.9504266
0.109497875 -6.2141833 -7.1017528 -6.465721 -6.0352488 -4.13554 -5.275871 -6.010658
1.2712712 0.68106365 0.3973698 0.30803642 0.95353 0.24021713 0.8161443 0.88900405
1.1278906 0.2782415 0.56310564 0.26950288 1.3004346 0.8937912 1.5573914 1.3605576
-0.15202062 0.026700653 1.0124348 0.73628604 0.56254244 1.2016052 0.27057812 0.003406537
0.24507496 0.7166772 0.7730149 -1.101857 -1.3126993 -0.87410253 -0.14732152 -0.4433559
0.017399795 0.5447449 0.67744035 0.18748845 0.4017169 -0.36218643 0.51612073 0.572352
-0.4921767 0.06582242 -0.53165984 -0.5552454 -1.1081287 0.07400405 0.16483466 -1.349076
-2.4870355 -0.027963886 -1.1302892 0.2229768 -1.8729568 0.15225366 -1.3619471 0.68248254
-0.72986495 0.34936982 0.2608944 -0.28313535 -0.84640056 0.097881064 -0.56145257 -0.3250275
-0.50209427 0.008087168 -0.38285133 -0.0772047 0.6577348 0.022994144 -0.5790718 0.476884
0.4389008 -0.56211466 -1.194793 -0.43436813 0.66506255 -0.68235695 0.37778932 -0.29139683
0.5116731 -0.31677002 -0.78899336 -0.43777996 0.66679865 0.31956348 1.0579739 0.47929117
-0.3724086 -0.67127043 0.14044014 0.13795896 -0.3494374 0.41571423 -0.83910733 -0.62818515
-0.31601164 -0.0050874576 -0.19463697 0.23235656 -0.4517944 -0.098554045 -0.24432746 0.84253085
-1.599889 -0.030031966 0.23318084 -3.2901802 -1.1402482 -0.04222072 0.07758222 0.14948869
0.6622546 -1.7226156 0.010618889 -0.33995032 0.5784109 0.14770849 0.44795576 -0.03846011
-0.38931578 -0.036147177 -0.07751886 0.41991773 -0.27906224 0.37953466 -0.27385643 0.18496484
0.36924106 -0.23603892 -0.20194381 0.41429457 0.21894369 0.1651487 -0.27577674 -0.17818071
-3.0648572 0.25032532 -0.017206574 -0.08249185 0.1835742 -0.148811 0.39352426 0.14624687
-4.0837874 -5.5286827 -5.5366626 -5.1923337 -4.859324 -6.2054973 -5.4058924 -4.1434817
-5.4469037 -5.119891 -5.5429735 -0.3568805 -4.7805734 -7.9094815 -3.86729 -5.5452924
-0.2529809 -5.5163226 -6.2517614 -6.1793256 -6.364151 -5.6733766 -7.0457306 -5.4695997
-0.040709525 0.9770132 0.7337739 1.1473709 -0.17754996 0.77379453 -0.00053729815 1.1358935
0.82608926 1.207446 1.6524055 0.802688 0.67156 0.85541403 0.72720784 0.6018157
0.51065886 1.152018 0.29057062 0.52162194 0.31422836 0.7150117 -0.024534646 0.4757701

arith.constant2 f4 [4]
00000000: 81f2 d1bd d60b 103f 38d8 193f 518b 83bf
-0.10251332 0.5626806 0.6009555 -1.0276891

sequential_1/dense_1_2/BiasAdd/ReadVariableOp f4 [10]
00000000: 2e2c 3c3e 89a1 3e3f 2b3a e73b ad3d a13e
00000010: aeac c53f 5e22 c13f 8f93 433f 637f 9b3f
00000020: d498 133f 7e6b 62be
0.18376228 0.74465233 0.0070564947 0.31492367 1.5443323 1.5088613 0.7639703 1.214825
0.5765507 -0.22111318

sequential_1/dense_1/BiasAdd/ReadVariableOp f4 [24]
00000000: 5c06 22be 7236 23bd 46bb acbd 21ff 6bbd
00000010: c707 1fbe cd94 15bd 2134 1bbe 5d35 22be
00000020: 92fa f0bd 85ef a1bd 2d54 2dbe 0f6e 013e
00000030: ab8e 38be da66 97bd 0811 4bbe 74a1 ecbd
00000040: 7916 4e3e 96d8 52bd 8ded bdbd 1383 abbd
00000050: d97a cebd 2b47 50be b784 1fbd b951 21be
-0.15822738 -0.039846845 -0.08434157 -0.057616357 -0.1553031 -0.03651886 -0.15156604 -0.15840669
-0.117665425 -0.07907013 -0.16926642 0.1263964 -0.18023174 -0.07392664 -0.19830716 -0.11554232
0.2012576 -0.051476084 -0.09273825 -0.0837461 -0.10082025 -0.20339648 -0.038944926 -0.15753831

sequential_1/dense_1/MatMul f4 [24, 32]
00000000: 60b9 0bbd 40a4 f23b 2877 2440 eadd b2bf
00000010: e3a4 7c3f 2d2e babf d8b8 ab3d 888e aabf
00000020: 1818 fabd 7772 09bf 7442 88bf 9ad7 edbe
00000030: 7997 0fbf 13d7 893d e6a0 46bf bea0 203e
00000040: 37f3 4cbf 3292 873e 6dd4 b1be f6f0 c63e
00000050: aa0c 92be 5083 b03e 6d21 543c 5674 863e
00000060: 751e b03e 3592 973e 1d25 ba3e 9b11 2f3d
00000070: 779e b03e 0091 c4bd d420 b93e c53f 73be
00000080: bc62 bfbd a759 8abe 8371 c5bf 3b95 1d40
00000090: 4342 00bf 875e 0240 a5c7 8cbf 30c0 663f
000000a0: 151d 7fbf 2796 cd3e d945 54bf 3205 753e
000000b0: 9c12 81bf 5063 54be 7c34 64bf 11dc d5be
000000c0: f9bf 0abf 30c4 c5be 62ba 85be 2c1e e8be
000000d0: 1376 703d 94a6 edbe 4f9b 9e3e 2e5e ffbe
000000e0: 0cec 583e ba39 01bf 5eea 7b3e 3b1a aebe
000000f0: 0dbe c83e 0142 6a3d b686 a23e 2d2c 013f
00000100: 1d97 44be 06ef 0a3e 69f4 d2bf 4a2e c4bf
00000110: 8224 0ec0 6c6f 84bf 2f41 08c0 1694 79be
00000120: 66fc e9bf d0ea 083e 7a11 cfbf 0cc6 2a3e
00000130: 7998 50bf 3c36 b43e 27ec fdbd 1552 833e
00000140: 1ed9 833e 3654 713d 2199 083f afc9 93bd
00000150: 4f8e 4d3f 6588 ebbd e914 3c3f b75f fdbd
00000160: f48d 3c3f 1421 81bd 2199 d03e b9b1 00bc
00000170: c65b 923d 6733 163d 76f4 07be d2df 913d
00000180: 2182 35be 382e 8a3e 56db a5be 713e 14c0
00000190: e2f7 cf3e b42e ebbf 7f53 293f beba 7ebf
000001a0: a120 503f b897 1bbf 6769 403f bb6a 35be
000001b0: 863d 513f 1571 623c b32b 5e3f e627 343e
000001c0: be9c 573f f44e be3e d11b 2a3f 8469 cf3e
000001d0: cb51 c83e 55fe 0d3f a728 1ebe c0c4 b13e
000001e0: 3a28 81be fb9e 083f 3cdf 0bbf 62ad cd3e
000001f0: 1e94 43be 0829 ba3e b590 41be b002 333d
00000200: f88e 7a3e a821 703e fd83 3940 e7d5 cb3f
00000210: bace 0d40 5e4c 4e3f 887b c13f b178 1f3e
00000220: 4c43 923f 31e2 82be e82c 383f d15f 10bf
00000230: c727 063e bca7 0bbf 9f23 4fbe a878 ffbe
00000240: 7074 14bf e65f e7be 0693 f3be 51b0 8dbe
00000250: 81dd 3cbf eed2 64be fe3a bbbe 5c2e 2cbe
00000260: 83e5 c5be 723d 9cbd 2e4e 26be 7340 333d
00000270: 3040 093e a682 5f3e 2cce b33e 2691 eb3e
00000280: 74a1 89bd 0c16 843d c5aa 0940 fbb4 6d3e
00000290: afd4 1140 8ad4 073f 8637 a23f 02a9 a53e
000002a0: d1af 0c3f a68e 733e 5efd f33e d533 d73e
000002b0: 691a f8bc 7766 073f de92 81bd 5021 293f
000002c0: 2a7f 05bf ac87 063f 4add 27bf 9a24 023f
000002d0: ee5b 45bf c6f2 9a3e 4d1c 29bf 8c4f 4e3d
000002e0: 15b5 73bf 9117 a7be cfd8 54bf e7f2 d8be
000002f0: fdbd bc3d d99c 88be ef8f 3fbd c92a 10bf
00000300: 7ca2 813e a245 bebd 36d0 9fbd b634 1c40
00000310: b470 eb3e 0244 ea3f 7352 6d3f 6537 a13f
00000320: 2151 9d3f 9552 253f 1c54 883f 2010 013e
00000330: 54dd 523f 06d4 93be 4a66 b83e 9725 31bf
00000340: b775 fc3e 2c7e 0abf 1bde 1c3e 5394 17bf
00000350: 2857 76bb b365 01bf c0a0 61be 736d cdbe
00000360: 42d0 b6be 9b4b 8abe 6b53 1abf aa9d 82bd
00000370: 8e6a 92be 0e05 403e 4cff c5bc e1b4 433f
00000380: 50f8 713e ffb4 28be d663 d4bf d32d 21c0
00000390: d31f e7be 4001 b1bf a3bb 133e 8085 03bf
000003a0: 02c7 de3d 23af d9be 42b1 903d fdcc f7be
000003b0: f30e b63c a0a7 b6be 284c 083e 04af b6be
000003c0: 650f 3e3f d0c1 6cbd f35e 6a3f c96a 883d
000003d0: 9718 323f cfb8 94bd 2da4 143f e9a8 b8be
000003e0: bc0b 423f 0519 2e3e 143b 273f dddf d33e
000003f0: ae70 0a3f fc9d d63e 24d3 e73e f6d0 b83f
-0.034112334 0.007404834 2.5697727 -1.3973973 0.986891 -1.4545342 0.083848655 -1.3324747
-0.12211627 -0.53690284 -1.064528 -0.46453553 -0.56090504 0.06730475 -0.7758926 0.15686318
-0.80058616 0.26478726 -0.3473238 0.38855714 -0.28525287 0.34475183 0.012947422 0.26260632
0.34398237 0.29603735 0.3635644 0.0427414 0.344959 -0.09597969 0.36157858 -0.23754795
-0.09345004 -0.27021524 -1.5425266 2.4622333 -0.5010111 2.0370195 -1.0998427 0.90137005
-0.9965375 0.4015362 -0.8291908 0.23927763 -1.0083804 -0.2074101 -0.89142585 -0.4176946
-0.5419918 -0.38626242 -0.2611876 -0.4533552 0.058706354 -0.46416152 0.30977866 -0.4987654
0.21183795 -0.5047871 0.24601123 -0.34004387 0.39207497 0.057191852 0.317434 0.5045803
-0.1919827 0.13567743 -1.6480838 -1.5326626 -2.2209783 -1.0346503 -2.1289785 -0.24372897
-1.8280151 0.13370824 -1.6177208 0.16677111 -0.81482655 0.35197628 -0.12398558 0.2564856
0.25751585 0.0589182 0.53358656 -0.072162025 0.8029527 -0.115006246 0.73469406 -0.12371772
0.73654103 -0.06305137 0.40741828 -0.007854872 0.07146411 0.036670115 -0.13276848 0.071227685
-0.17725421 0.26988387 -0.32393903 -2.3163111 0.40618807 -1.8373628 0.6614303 -0.99503696
0.8129979 -0.6077838 0.7516083 -0.17716496 0.817345 0.013820906 0.8678543 0.17593345
0.84223545 0.3716961 0.66448694 0.4051019 0.39124903 0.55466205 -0.15445195 0.3472042
-0.25226003 0.53367585 -0.54637504 0.40171343 -0.19099471 0.3635943 -0.18902858 0.043703735
0.24468601 0.23450339 2.898681 1.5924653 2.2157426 0.8058528 1.5115824 0.15573384
1.1426787 -0.25563195 0.7194352 -0.56396204 0.13101111 -0.5455282 -0.20228432 -0.4989674
-0.5799017 -0.45190352 -0.47573107 -0.2767358 -0.7377549 -0.22346088 -0.36568445 -0.1681456
-0.38651666 -0.07628907 -0.1624076 0.043762635 0.13403392 0.21827182 0.35118234 0.46009177
-0.06720248 0.064495176 2.151048 0.2321357 2.2786062 0.53058684 1.2673194 0.32355505
0.54955775 0.23784885 0.4765424 0.42031732 -0.03028603 0.52890724 -0.06326841 0.66066456
-0.5214716 0.5255077 -0.65572035 0.508371 -0.770934 0.30263346 -0.6605881 0.05036883
-0.95198184 -0.32635167 -0.83143324 -0.4237282 0.09215925 -0.26682165 -0.046768125 -0.56315285
0.25319278 -0.09290625 -0.07803385 2.4407172 0.45984423 1.8302004 0.9270393 1.259503
1.2290384 0.64579135 1.0650668 0.12603807 0.8236897 -0.288727 0.3601554 -0.6919798
0.4930856 -0.54098773 0.15319102 -0.592107 -0.003758857 -0.50545806 -0.22033978 -0.40122566
-0.35705763 -0.27010807 -0.60283536 -0.06377728 -0.2859692 0.18751928 -0.024169587 0.76447874
0.2362988 -0.16475295 -1.6592968 -2.518422 -0.45141467 -1.3828506 0.14427046 -0.5137558
0.108778015 -0.4251643 0.07065059 -0.4839858 0.022223925 -0.35674763 0.13310301 -0.356804
0.7424224 -0.05780202 0.9155113 0.06660993 0.6956877 -0.07261812 0.5806301 -0.36066368
0.75799155 0.17001732 0.6532452 0.41381732 0.54078186 0.41917408 0.45278275 1.443877
